EasyCamera/Resources/Models/PPO_MLP.onnx (onnx, 201271 bytes, 12 tensors)

actor_main.0.weight f4 [128, 166]
000000 df 87 10 bc 8e 96 62 bc b0 8a a5 3b 45 b4 21 bd
       -0.008821457 -0.01382984 0.005051933 -0.03947856
000010 fd 9d 97 bd 7e fe 5a be 50 00 32 bb cf 7a b5 bd
       -0.07403181 -0.21386144 -0.002716083 -0.088613145
000020 bb e9 f0 3d a5 3e 31 3e cc 6c cb 3c 07 40 8f 3b
       0.117633305 0.17309053 0.024832152 0.0043716463
000030 08 00 d9 bd 47 4d 0b 3e 3e 8a af bd db 3b 9d 3d
       -0.10595709 0.13603698 -0.085712895 0.07677432
000040 6b b8 0d be 5b 44 04 be 3c d8 56 3d 4f ce cc 3c
       -0.13839881 -0.129167 0.05245231 0.02500072
000050 6d 11 17 3e 03 8f 99 3d d0 6a 2c 3e 12 bf 09 3e
       0.14752741 0.074979804 0.1683762 0.13451794
000060 33 13 c7 3d 84 40 ba 3d f7 43 a7 3d 85 01 1b bd
       0.09720459 0.09094337 0.0816726 -0.037843246
000070 93 d0 82 bc 70 14 6e bd dc f5 80 3c 4a dd ca bd
       -0.015968597 -0.05812496 0.015742235 -0.09905489
000080 1d bd 2f bd a5 8e 43 bd 3e 7a 6d bd 6f e3 c4 bd
       -0.04290496 -0.04774346 -0.057977907 -0.09613692
000090 e6 57 58 bd da 7c 88 3e 52 02 a5 3e 18 4c 0c bd
       -0.0528182 0.26657754 0.32228333 -0.034252256
0000a0 d0 f0 01 be 45 c4 8a 3e fb 8a b1 bd 38 e3 c5 bc
       -0.12689519 0.27102867 -0.086690865 -0.024156198
0000b0 3f 3b 37 be 9f 5d f4 bd a2 58 02 3e da 9c 34 bd
       -0.17893694 -0.11931919 0.12729123 -0.044094898
0000c0 e4 6a 18 3d cf 94 d3 bd e4 e8 ac 3d e0 08 1f be
       0.037211314 -0.10331117 0.08442858 -0.1553073
0000d0 8e dc 89 bd c5 0a b1 3d b0 a8 ae bc 78 ff 65 bd
       -0.067315206 0.08644632 -0.02132067 -0.056151837
0000e0 a6 bd 94 3d 95 d3 a3 3d 52 c6 3d 3e d4 b6 1c 3c
       0.07262735 0.079993404 0.18532684 0.009565074
0000f0 64 6e b1 3a 68 2c 0f be 34 f5 8f 3d 4f 4a 92 bc
       0.0013536927 -0.13981783 0.07029191 -0.017857699
000100 b1 bb 2a 3e 50 28 0a bd b6 bf 8e 3e 39 26 85 bd
       0.16673161 -0.03372985 0.2788064 -0.06501431
000110 91 d4 9a 3c c3 06 26 be 1d d1 8d 3b e5 df 87 bd
       0.018900188 -0.16213517 0.0043279068 -0.06634501
000120 73 ef 8f 3d d7 9f fe bc 6c 23 2e be 03 ce 1b be
       0.07028093 -0.031082077 -0.170057 -0.15215306
000130 76 2e a1 3d e5 a0 06 bd c4 f1 92 3d f8 a1 cc 3d
       0.0787019 -0.032868285 0.071750194 0.099918306
000140 4e e3 03 be cf 72 02 3d f5 00 9a 3d c7 c1 ac bd
       -0.12879679 0.03184777 0.07519714 -0.084353976
000150 a0 0d 45 3d 2e af 32 be 8c 43 e5 3d 87 27 35 be
       0.048108697 -0.17449638 0.11194524 -0.1769086
000160 68 81 33 bd 8a ca 17 3d 65 db 7b be 89 49 17 3c
       -0.043824583 0.03705839 -0.24595411 0.009233841
000170 62 a8 e7 bd 7f ff cd 3d db 6d 41 3d 39 42 19 3e
       -0.11311413 0.10058498 0.047223907 0.14966668
000180 8e 2e b1 bd 20 78 9f 3d 2f 8f 5b bd 4c 03 6a bc
       -0.08651458 0.07786584 -0.053603347 -0.014283013
000190 b0 fd db 3d b9 a5 2a bd a7 ad 24 3e 1f 89 bd 3c
       0.107417464 -0.04166195 0.16081868 0.023136673
0001a0 be ff f1 3c fe 95 cc 3d 45 2f 83 3a 57 49 a0 be
       0.029540893 0.09989546 0.0010008594 -0.31305954
0001b0 8a 36 bc 3b 4a 73 a1 bd 8c c8 0b 3d 6e a0 aa 3c
       0.0057438063 -0.07883318 0.034126803 0.020828452
0001c0 2b 97 40 3e 14 ae 76 3b fc e4 30 bd 41 40 09 3e
       0.18807666 0.003764038 -0.043187127 0.13403417
0001d0 d5 ae 7e bc 63 0f 10 bd 30 8b 53 be af b5 63 bc
       -0.015544613 -0.035170924 -0.20658565 -0.013898297
0001e0 5e de 3c be f0 9a 3b bd 2d cd 6e 3b ab 47 33 3d
       -0.18444201 -0.045802057 0.0036438212 0.04376952
0001f0 67 15 2c 3e 5b 81 0e 3e 35 ed b0 3d fa 55 72 bc
       0.1680504 0.13916533 0.08638994 -0.014791006
000200 e3 1c ce 3a e3 bb c8 3d 8f 1d 07 be dd 79 fd bd
       0.0015725162 0.098014615 -0.1319487 -0.12376759
000210 2c f4 9d bd 9e e3 33 3c 8a 2a 8a be 5d c8 b5 3b
       -0.07712588 0.010979561 -0.2698558 0.005547567
000220 42 52 de bd e1 77 d9 bd 9a 24 71 3d ca 78 08 be
       -0.10855533 -0.10618568 0.058872797 -0.13327327
000230 6f c5 e4 bc 22 37 53 3d 5a ca 1d 3d 7a ed 24 3e
       -0.027926175 0.05156625 0.038523056 0.16106215
000240 95 b3 c1 3b 90 ea ec 3a 7a 9a d6 3b 9f e3 e3 3d
       0.0059113004 0.0018075276 0.0065491768 0.111274
000250 d9 81 c1 bd 16 5b 33 3c 6c 56 0d be b5 90 7c 3d
       -0.094485946 0.01094701 -0.13802499 0.06166144
000260 ff ba a3 bd cc f7 f8 3d 03 3a f5 3c 6e fd cb 3c
       -0.07994651 0.121566385 0.029934889 0.024901118
000270 94 2c 16 3e d4 da 39 be 1e 04 19 be 52 46 c6 3d
       0.14665443 -0.18149883 -0.14942977 0.09681381
000280 bd 7b f6 3d 19 d4 a3 bd 56 7a d9 bd 82 ce aa bd
       0.1203532 -0.07999439 -0.10619037 -0.083401695
000290 2d e2 e8 3d 97 69 5d bd 4e 75 85 3c 37 12 0e 3e
       0.113712646 -0.054055776 0.016291287 0.13874136
0002a0 e6 17 8a 3d 5f 89 55 3e 1f 25 b4 bd 3c 12 ed bd
       0.067428395 0.20853184 -0.08796143 -0.115757436
0002b0 d3 af 01 3c 7b 18 df bd ff 6d cb bc 4a 0b 69 be
       0.007915455 -0.10893341 -0.024832724 -0.22758213
0002c0 6f b8 57 bd 37 18 0c 3d 05 32 3f bd 24 e4 b8 be
       -0.052666124 0.03420278 -0.04667856 -0.36111557
0002d0 e2 8a 8e 3c da 58 82 3d d1 db fc 3d 98 18 27 be
       0.017400209 0.06364603 0.12346614 -0.16317976
0002e0 8b cd 80 bd 19 c9 a1 bd 4a 65 98 3c 76 3a 53 3e
       -0.06289204 -0.078996845 0.018602986 0.2062777
0002f0 99 9d 0e bd 3a e1 40 3c 5f 87 9d 3d 72 0c 7c 3d
       -0.034818266 0.011772448 0.076918356 0.061535306
000300 c0 7d f9 3d ba 5d 5a 3d cb de a6 bd bd d5 e8 3d
       0.12182188 0.05331204 -0.08147963 0.11368892
000310 0d af 02 be b5 16 8b bd 8f 16 34 3d 25 9f 8e bd
       -0.12762089 -0.067914404 0.043966826 -0.06963948
000320 29 1e 59 3d cf 45 39 bd 5d 6a 20 be c0 9a 2e 3e
       0.05300728 -0.04523259 -0.15665574 0.1705122
000330 dc 5b 05 3e cc f0 0a 3d 4c 1a c3 bd 4e 32 49 3d
       0.13023323 0.033921048 -0.095265 0.04912024
000340 8a 8d 9f 3e c7 56 08 3e 6f 8d 03 be 94 ee 56 3e
       0.31162673 0.13314353 -0.12846921 0.20989448
000350 45 9b 17 be 59 76 65 3c 01 63 2d 3d 51 45 3a be
       -0.14805324 0.014005267 0.042330746 -0.18190505
000360 f2 45 52 be 40 a4 21 3d 26 18 8c 3e 42 56 64 bc
       -0.20534495 0.03946328 0.27362174 -0.013936581
000370 ba 71 d8 bd 00 c1 0e be a6 0c f0 bd a2 29 87 bd
       -0.105685666 -0.13940811 -0.117211625 -0.06599738
000380 b0 fa ae 3c 52 fa 00 3d a9 12 1c be a2 3d 40 3e
       0.021359771 0.031488724 -0.15241493 0.18773511
000390 24 bd be 3d 31 3e 34 3d 94 b6 3a 3e f8 4e df bd
       0.093134195 0.044004623 0.1823371 -0.10903734
0003a0 f4 be fb bd a0 02 39 3e f4 01 43 3e a5 b6 e3 3d
       -0.12292281 0.18067408 0.19043714 0.11118821
0003b0 f4 5d d2 bd 2a 1f 30 be fc c4 c4 3d 58 cc 34 3e
       -0.102718264 -0.17199388 0.09607884 0.17656076
0003c0 1c ce 0a 3d 89 13 81 bd 06 fe bc 3c 93 38 00 bc
       0.033887967 -0.06302554 0.023070347 -0.007825988
0003d0 56 4c f5 3d a5 48 97 3d 55 f2 85 3d a5 97 37 3d
       0.119774505 0.07386903 0.06540362 0.044822354
0003e0 91 cb 74 bd a6 3d 2c 3d 7c c8 60 bd 9e 40 c1 bd
       -0.05976445 0.04205098 -0.054878697 -0.09436153
0003f0 ac a6 94 bc a8 36 a4 3d fb a2 1c 3d a2 b7 0f be
       -0.018145882 0.08018237 0.038241368 -0.14034894

actor_main.0.bias f4 [128]
000000 38 c1 7d ba 6c 46 80 39 ba 06 9d 3a b8 7a bc b9
       -0.0009679976 0.0002446653 0.0011980154 -0.00035949587
000010 c0 0a d9 39 82 94 3a 3a 2c 3c 8f 3a 6c dc b4 3a
       0.00041397475 0.00071174663 0.0010927967 0.0013798601
000020 37 d7 5d ba 77 3e 39 39 24 49 ab ba 34 06 51 ba
       -0.00084625505 0.00017666245 -0.0013068062 -0.00079736416
000030 1a 9e 19 ba 18 76 c8 3a 74 d5 50 b9 33 90 af ba
       -0.0005860046 0.0015293984 -0.00019915943 -0.0013394415
000040 24 53 e3 b9 04 29 ad 3a 3c de 36 b9 39 28 9c 38
       -0.0004335876 0.0013211076 -0.00017439661 7.446152e-05
000050 e6 06 e2 b9 d9 2b 19 ba ea 24 67 3a 95 8d f2 38
       -0.0004311122 -0.00058430206 0.00088174513 0.00011565831
000060 b9 0b 9b 3a 30 0f 54 ba ec 53 b2 b6 76 28 1a ba
       0.0011829055 -0.00080894213 -5.314583e-06 -0.0005880663
000070 93 4b fd 39 84 20 12 3a 48 93 cc 37 e1 4e d3 39
       0.00048312228 0.0005574303 2.4387278e-05 0.00040303826
000080 79 97 45 3b 13 38 7f 3a a8 e2 da 39 de aa e1 ba
       0.00301501 0.0009735834 0.00041749072 -0.001721706
000090 4b 79 94 b8 17 e6 33 3a c8 b8 24 ba bc 63 2a ba
       -7.0797825e-05 0.0006862594 -0.0006283638 -0.0006499847
0000a0 37 a4 9d ba 1d a1 11 3a bd b7 cb 3a 09 85 b8 37
       -0.0012027089 0.0005555319 0.0015542429 2.1996459e-05
0000b0 c9 75 d8 ba a5 01 a8 3a 27 74 50 b9 ab 55 52 ba
       -0.0016514595 0.0012817873 -0.00019879696 -0.000802363
0000c0 c1 75 68 ba ed 57 8d 39 7e 90 db b8 75 83 7a ba
       -0.00088676444 0.00026959126 -0.000104696475 -0.0009556332
0000d0 64 b2 ee 3a af 4f 38 ba d8 07 ce ba 8c e2 f9 3a
       0.0018211124 -0.0007030917 -0.001571889 0.0019064709
0000e0 d2 15 cd 3a 84 70 b4 b9 32 92 85 3a 51 01 84 ba
       0.0015646762 -0.00034416106 0.0010190664 -0.0010071193
0000f0 43 fc 9a 3a 69 8f f3 39 2a cc 0d 3a cd be 3f ba
       0.0011824447 0.0004645542 0.0005409146 -0.00073145033
000100 67 91 37 3a 27 4c 72 39 f2 dd 4e 38 a5 a2 aa 39
       0.00070025626 0.00023107287 4.932093e-05 0.00032546106
000110 3d 4a b8 39 7f 14 71 ba 64 6c 51 37 c4 94 61 ba
       0.00035150527 -0.00091964746 1.2482607e-05 -0.00086052367
000120 4c f3 c0 39 9e 25 18 ba af 6f a2 39 79 c2 a3 3a
       0.00036802364 -0.0005803945 0.0003098226 0.001249387
000130 60 db a3 3a 22 47 a2 3a 8f 08 b1 39 2f 08 cd ba
       0.0012501292 0.0012380818 0.00033766447 -0.0015642698
000140 34 b7 cf 39 f4 92 92 ba 9d de b3 39 f9 1d 27 ba
       0.00039618614 -0.0011182711 0.000343074 -0.00063750107
000150 4f f6 70 3a 2d e5 bc 38 ed f2 84 ba b9 7c 8e ba
       0.0009191976 9.007226e-05 -0.0010143198 -0.001087091
000160 dd e2 a5 3a a7 01 16 b9 a0 16 34 3a 0c 2f 44 3a
       0.0012656112 -0.0001430573 0.00068698265 0.0007483817
000170 21 e4 47 ba d1 8c 39 3a 64 82 8a 3a b1 e3 82 3a
       -0.00076252414 0.0007078173 0.0010567424 0.000998607
000180 c9 4c 1f ba 83 cb 8a b9 59 a3 f9 39 f7 34 82 39
       -0.00060768105 -0.0002647304 0.00047614684 0.00024834994
000190 e0 c5 18 3a e8 fe 6d b9 63 2e fb b9 1a cb 83 b9
       0.00058278255 -0.00022697041 -0.00047909011 -0.0002513759
0001a0 51 0b b1 ba 5f 2c f3 3a 05 06 25 ba 9b b4 27 3a
       -0.0013507401 0.0018552652 -0.00062951475 0.0006397457
0001b0 0c f2 36 ba 61 31 dc ba 29 96 46 3a cb 88 02 bb
       -0.0006978817 -0.0016799384 0.0007575476 -0.001991796
0001c0 4b 70 e9 39 ff 4f b5 39 4d 11 60 ba 8d 13 e8 3a
       0.00044524888 0.00034582612 -0.00085475 0.0017706022
0001d0 74 e6 85 ba 1f 40 a2 3a 80 1e 16 ba 82 0e 09 bb
       -0.0010215775 0.0012378729 -0.0005726591 -0.0020913188
0001e0 aa b3 92 ba 87 06 82 b9 e7 fb 33 ba a8 8d c2 ba
       -0.001119246 -0.00024800395 -0.00068658445 -0.0014843242
0001f0 d8 fe b0 ba a5 c4 73 ba 3a 59 d4 3a 23 79 9f b9
       -0.0013503684 -0.00092990167 0.0016200908 -0.00030417097

actor_main.2.weight f4 [128, 128]
000000 41 7f 04 be 1e 68 ea 3d 40 95 0c 3d 29 39 02 3e
       -0.12939169 0.1144564 0.034322023 0.12717117
000010 dc 1c ad 3d e5 a3 9a bd 46 a8 36 3d fb 26 cb 3d
       0.0845277 -0.07550792 0.04459407 0.09919544
000020 37 62 dc 3d 03 b4 8c 3d 85 f6 3a 3e d0 1a b0 bd
       0.107609205 0.06870272 0.18258102 -0.08598864
000030 be 70 1d be a7 b4 30 3e b1 61 0d 3e aa 11 0c be
       -0.15375039 0.17256413 0.13806798 -0.13678613
000040 f2 7b 2d 3d 13 19 a0 3d 81 ca c4 bd e0 05 f4 3b
       0.04235453 0.078172825 -0.09608937 0.0074469894
000050 de 36 fe 3c 16 b5 62 be a1 36 cb 3d 28 76 ca 3d
       0.031032022 -0.22139391 0.09922529 0.09885818
000060 7c 37 92 bd 84 a4 11 be 59 b8 1b 3e a9 0d 96 3d
       -0.07139489 -0.14222914 0.15207042 0.07326824
000070 e3 6b 54 3e d4 bc 69 3e de 9f c9 bd a4 37 24 be
       0.2074428 0.22825938 -0.09844945 -0.1603685
000080 18 e6 f6 bc 1c dc 14 be 5e 3f 89 be f2 d2 ac 3d
       -0.030139014 -0.1453709 -0.26806158 0.08438672
000090 01 d4 16 be f5 0d a4 3d e2 4f 2b 3e 7e e7 2a 3d
       -0.1472931 0.080104746 0.16729692 0.041724674
0000a0 e9 c5 22 3c 25 a7 05 bd 0c 9a bd 3d 3a 4e 77 3d
       0.009934881 -0.032630105 0.09257898 0.060377337
0000b0 50 f3 e3 ba eb 4b 55 bd 14 49 c1 bd 4f 98 5c 3d
       -0.0017391238 -0.052074354 -0.09437767 0.05385619
0000c0 a4 bd 20 3e 4b 10 ef 3d 35 45 58 3d e9 ad a6 3d
       0.15697342 0.116730295 0.052800376 0.081386395
0000d0 75 f8 73 3e 1c bd 24 3e 5d fb a0 3d f3 89 45 3e
       0.23825248 0.16087765 0.07860444 0.19290905
0000e0 d5 5c 2a bd 86 6e e5 3c 2b 07 20 3e c6 4d 13 be
       -0.041592438 0.028006803 0.15627734 -0.14385137
0000f0 a3 02 52 3e 55 84 c0 3d 30 a6 36 bc e0 93 86 bd
       0.20508818 0.0940024 -0.011148021 -0.06571174
000100 44 9e 97 bd ba b3 79 3e 8e 86 f8 bd 7d ad a5 ba
       -0.07403234 0.24384966 -0.12135039 -0.0012640205
000110 8f 1d 11 3b 50 19 c2 3c 2a b5 61 3e a2 57 25 3e
       0.0022142862 0.02369371 0.22041765 0.1614671
000120 46 e5 13 bc e3 76 5b be 08 88 9f 3d 17 5a 0d 3d
       -0.009026831 -0.2143207 0.07789618 0.034509744
000130 a6 dc f5 bb 10 55 c8 bd 60 ba 87 3d da 47 61 3e
       -0.00750311 -0.097818494 0.06627345 0.22000065
000140 56 ce 3e 3d bb e4 10 3d 09 60 36 bd a7 1e 38 be
       0.046583496 0.035374384 -0.04452518 -0.17980443
000150 26 26 12 3d d5 98 36 bd 7a 2e e4 bd 7a 1f 95 3b
       0.035680912 -0.044579346 -0.11141677 0.0045508714
000160 51 42 14 be 19 40 15 be 67 8b 3a bc 3e 25 86 3d
       -0.14478423 -0.14575233 -0.011385775 0.06550072
000170 a3 f6 9a bd 7a 28 a7 bd db 17 a5 3c 1e 79 8d 3d
       -0.075665735 -0.08162017 0.020152977 0.06907867
000180 4f a2 d0 3d ce 67 02 be 96 57 64 3e a4 a6 8b bd
       0.10187208 -0.12734911 0.22299036 -0.068188936
000190 88 8d b1 3d fa 52 8f bd 30 b5 7d 3d 3e 30 9e 3e
       0.08669573 -0.069982484 0.061940372 0.3089618
0001a0 cd c8 98 3d 64 74 3e 3e 89 47 9e 3a 06 23 d9 3c
       0.07460175 0.18599087 0.0012075762 0.026505958
0001b0 44 4e 19 3d f1 f2 be 3d 7e f1 0a bd e4 9d 12 be
       0.037428156 0.09323681 -0.03392171 -0.14318043
0001c0 9b 69 94 bc 06 ce 58 be 77 66 79 be bf 47 9b 3e
       -0.018116763 -0.21172342 -0.24355493 0.30328175
0001d0 26 40 ca 3d 6b 5d c2 bd 71 a8 24 bc 4a 88 9d 3c
       0.098755166 -0.09490474 -0.010049925 0.019230027
0001e0 16 26 93 3d a2 8a 79 bd 68 06 99 3b 7d f6 4e 3e
       0.07184999 -0.060923226 0.004669953 0.20211215
0001f0 1d 49 31 be 51 16 42 be 89 32 5b 3d ce b3 76 be
       -0.17313047 -0.18953826 0.05351499 -0.24092028
000200 27 81 77 3d f6 8c 40 bc eb b6 cd 3d 61 19 36 3e
       0.060425904 -0.011752358 0.100446545 0.17783119
000210 2c 0e 14 bd 5e e7 ab bd 74 0f a0 3d 3c 62 ce 3c
       -0.036146328 -0.08393739 0.078154474 0.025193326
000220 9e bf ee bc 3a 62 b3 3d 7d d7 0d bc 31 77 9a 3e
       -0.029144105 0.087589696 -0.008657333 0.3016906
000230 e7 8b 2d bc 93 a9 0f 3d 32 08 48 3e a5 f0 50 bc
       -0.010592437 0.035073828 0.19534376 -0.012752687
000240 79 68 06 be 68 6b e9 3d 74 42 62 3e 63 0f 61 bd
       -0.1312579 0.11397439 0.22095662 -0.054946315
000250 44 82 0a bb 6a 6e b5 bd 68 16 a4 bd 1d cd a3 3c
       -0.0021134773 -0.088589504 -0.08012086 0.019995267
000260 11 02 52 be ce 40 ad 3d b6 d8 68 be b8 c1 c9 bd
       -0.20508601 0.08459626 -0.22738919 -0.09851402
000270 e8 b6 0d be f5 18 27 3e 7e 21 10 3e f2 e8 84 3e
       -0.13839304 0.16318114 0.14075276 0.25958973
000280 9e 00 f6 bd 3d 2e a0 3c 6a c6 84 bd ba ac bb 3d
       -0.120118365 0.019553298 -0.06483157 0.09163804
000290 f5 7a e3 3c 03 c9 8b bd 23 7e 86 3e bc e6 d4 bd
       0.027768591 -0.06825449 0.2626811 -0.103955716
0002a0 2c 9c 37 bc df e2 02 3e bb 8f 83 3e f4 4c ac 3d
       -0.011206668 0.12781857 0.25695595 0.08413115
0002b0 45 e9 15 be 48 55 90 be e2 f2 6d bd 7f dc d4 3b
       -0.14639767 -0.28190064 -0.05809296 0.0064960117
0002c0 3b 56 76 bd 15 0b a0 39 1a f4 bf bd b6 ba 9b bd
       -0.06014083 0.00030525835 -0.093727306 -0.07603972
0002d0 06 83 3c bd f4 41 b6 3d 49 ae 19 bc c4 51 6a 3b
       -0.04602339 0.08899298 -0.009379932 0.0035754303
0002e0 a5 eb a0 bd 1d c2 e2 bc 99 fe 75 3d 9b 81 95 bd
       -0.078574456 -0.027680451 0.060057256 -0.07300111
0002f0 31 bc da bc e3 59 19 be dd 1f 26 be d4 7d 33 3b
       -0.026701065 -0.14975695 -0.16223092 0.0027388232
000300 1e fa 79 bd 57 7e c5 bd 6c 0f f9 3d cb 2b 9c bc
       -0.061029546 -0.09643238 0.121611446 -0.01906385
000310 19 a3 fd bc 49 46 2c 3e 4d e2 9a 3c 15 20 56 bd
       -0.03096156 0.16823687 0.018906737 -0.05227669
000320 c1 0b 11 3e de 47 40 bd b8 70 da 3d 07 51 ce bc
       0.1416464 -0.046943538 0.10666031 -0.025185121
000330 11 e6 c2 3d eb 69 a1 bd eb 61 1e 3e a7 92 9b bd
       0.09516538 -0.078815304 0.1546704 -0.07596331
000340 ed 4d 91 bd 42 a3 38 3e f2 71 f9 bd 36 fd 28 3d
       -0.07094941 0.18031028 -0.121799365 0.041257106
000350 ea 1a 2f 3e eb a0 03 3e 39 69 c2 3c 1f 76 91 be
       0.1710011 0.12854354 0.023731815 -0.28410432
000360 a0 8f d8 3c 5b a4 46 3e 33 33 c3 3d 20 e8 36 3c
       0.026435673 0.19398634 0.0953125 0.011163741
000370 49 b2 50 bd 62 d9 d6 3d 16 46 22 be b5 84 0a 3c
       -0.050951276 0.10490681 -0.15847048 0.008454491
000380 21 7a 69 3e 99 5e 62 be 82 6c 35 3e 09 c8 f2 3d
       0.22800495 -0.22106399 0.17717174 0.1185456
000390 a7 d0 ac bc 07 f6 05 be 2e f4 19 be 06 1c 7a 3d
       -0.021095587 -0.13082133 -0.15034553 0.06106188
0003a0 e4 0e f6 bc 1f d5 af 3d 01 2c a7 3d cc e7 df bd
       -0.030036397 0.085855715 0.0816269 -0.109328836
0003b0 45 26 0b 3e 76 76 92 bc 3f a2 03 bd 13 ad 51 be
       0.13588817 -0.017878752 -0.03213715 -0.20476179
0003c0 ea 3c 66 bc fa dd f1 3d 3d 0d 81 3e 2a 6f 5c be
       -0.014052609 0.11809917 0.25205413 -0.2152678
0003d0 0c 15 a2 be 7c 43 24 3e d2 ee b8 3d c7 59 96 bc
       -0.31656682 0.16041368 0.09029926 -0.018353356
0003e0 95 59 58 3d d0 15 15 be 3e 2a d7 bd 95 4c 77 bd
       0.052819807 -0.14559102 -0.10506104 -0.06037577
0003f0 8f ea 05 be 8e a3 99 bc 22 0a d2 bd 35 53 61 be
       -0.13077758 -0.018754747 -0.10255839 -0.22004397

actor_main.2.bias f4 [128]
000000 30 57 f4 3a b1 91 cb 3a c0 54 19 3a 7f ab 4b 3a
       0.0018641707 0.001553109 0.00058491156 0.00077693904
000010 99 b6 22 3a 37 39 a3 39 f7 c2 dd 3a 8b 63 8c ba
       0.0006207019 0.0003113241 0.0016919066 -0.0010710818
000020 ed bd c2 b9 c3 e0 6d 3a da 6d b4 b9 7c c0 ea b9
       -0.0003714407 0.00090743246 -0.0003441412 -0.0004477537
000030 dc 53 11 3b 67 69 46 b9 9d 27 38 b9 a4 6e 3d 3a
       0.0022175228 -0.00018922017 -0.00017562365 0.00072262646
000040 9b 78 5a ba 14 56 74 ba 19 5f d9 b9 bb 16 09 39
       -0.00083340117 -0.0009320688 -0.0004146032 0.00013073806
000050 1c 9d dc 39 75 54 92 3a ee 76 c1 ba 82 9b 93 ba
       0.00042078726 0.0011164086 -0.0014760175 -0.0011261555
000060 8d 4d b3 3a c8 56 48 bb 90 61 0d 3b 5f c8 9d b9
       0.0013679728 -0.0030569304 0.0021573044 -0.00030094662
000070 a8 55 9a 39 8c 49 73 b8 16 e5 3d b9 e9 3c 9f 39
       0.00029436988 -5.800421e-05 -0.00018109786 0.00030372225
000080 67 26 f2 3a 0a 02 52 b9 be d3 d3 3a da f1 16 b8
       0.001847458 -0.0002002792 0.0016161127 -3.598803e-05
000090 9b 80 10 3b c8 d4 a0 b9 67 20 04 3a 45 92 19 3b
       0.002204931 -0.00030676113 0.0005040229 0.002343313
0000a0 7f 11 ed 3a 53 b8 40 bb 0c 27 dd 38 00 c6 dc 3a
       0.0018086879 -0.002940674 0.00010545374 0.0016843677
0000b0 93 9d 89 ba 9e 25 c9 ba 7b 34 2e 39 37 9d 6c 3a
       -0.0010499231 -0.0015346294 0.00016613484 0.00090261124
0000c0 63 64 e8 ba 39 ac b2 ba f3 fa 8d ba 1f e5 37 39
       -0.0017730113 -0.0013631649 -0.0010832235 0.00017537594
0000d0 2a b8 60 38 46 af d8 3a fb 9d a7 b8 00 3f a4 b8
       5.3577278e-05 0.0016531728 -7.992607e-05 -7.831864e-05
0000e0 c0 31 ed ba 4a c6 cb ba 34 69 b2 3a 93 23 ee 3a
       -0.0018096492 -0.0015546766 0.0013611675 0.0018168561
0000f0 83 38 77 3a 6a e6 6f 38 da 90 2f ba 45 84 91 3a
       0.0009430723 5.719663e-05 -0.0006697305 0.0011102041
000100 fa ba 7e 39 3e 85 f6 3a 5b 86 1a 3a 63 d2 4d 3a
       0.00024292982 0.001880802 0.00058946543 0.00078514795
000110 21 12 f9 39 66 30 81 b7 52 09 96 3a c3 0e 35 39
       0.00047506488 -1.5400536e-05 0.001144687 0.00017267004
000120 fb 47 d7 3a 59 83 3c 3b 47 43 77 39 f0 2a fe 3a
       0.001642465 0.0028764813 0.00023580818 0.0019391458
000130 ff a1 c1 3a ae 37 e1 3a 1f 1d ca ba 93 83 c1 3a
       0.001477301 0.0017182732 -0.0015420056 0.0014763944
000140 c3 08 b4 b9 e7 72 c2 3a e1 7d b2 3a 0d 70 71 ba
       -0.00034338803 0.0014835269 0.0013617837 -0.0009210117
000150 15 d8 69 3a ab 02 8e 39 8c ee e5 b9 7d a9 8b 3a
       0.00089204434 0.00027086338 -0.00043856015 0.001065537
000160 35 ef 79 ba f0 c0 bd 38 9e e9 8e ba 78 b3 17 3a
       -0.0009534241 9.04816e-05 -0.0010903364 0.0005786936
000170 47 5d 03 39 96 32 07 3b 0d 7a aa ba ca ad 4b ba
       0.00012527882 0.0020629517 -0.0013006345 -0.0007769732
000180 5f 1b 77 ba 7a 9a a8 ba a5 9b 05 ba 9e dc d9 3a
       -0.0009426381 -0.001286342 -0.000509674 0.0016621535
000190 ec d4 cf b8 29 06 fd 39 85 40 c3 3a ba 32 a2 3a
       -9.910189e-05 0.0004826051 0.0014896548 0.0012374737
0001a0 93 3e ce 3a a7 34 b8 3a a9 84 2e bb db 63 7c 3a
       0.0015735201 0.0014053778 -0.0026629365 0.0009627917
0001b0 24 92 2d ba 92 d8 90 36 cd ac 6d 39 a9 23 30 3b
       -0.0006621203 4.3167465e-06 0.00022666455 0.0026876724
0001c0 16 81 88 ba ac 9c 83 3a ac ee 8d 3a fd 00 77 b8
       -0.0010414447 0.0010041199 0.0010828576 -5.889031e-05
0001d0 12 0b 4f 3a d8 c0 7b b8 c8 be 26 ba b3 fd 15 38
       0.0007898073 -6.0022663e-05 -0.0006360826 3.5760644e-05
0001e0 74 ec b4 ba 58 c8 8d 39 6c 03 36 ba d0 95 37 3a
       -0.0013803379 0.00027042883 -0.0006943259 0.000700322
0001f0 69 d5 46 ba 12 fb fe ba 18 bf 92 b9 97 6c c5 3a
       -0.0007584901 -0.0019453487 -0.00027989666 0.001506227

actor_main.4.weight f4 [64, 128]
000000 a7 b0 7a 3d e5 45 aa be ba a9 4c 3c 5a 49 2e 3e
       0.061203625 -0.3325645 0.012491638 0.17020169
000010 64 a6 10 3d b2 f6 0a 3e e3 cd 42 3d 1d 9a d5 3c
       0.035314932 0.1357067 0.04755963 0.026074464
000020 ef e6 1f 3d 95 ca 07 be 26 d8 3b 3a 99 48 ec 3c
       0.039038595 -0.13260873 0.00071656925 0.028843211
000030 6d 25 8e 3e 0d 18 06 3e 6c 37 b8 bc f4 e1 03 3e
       0.2776293 0.13095112 -0.022487365 0.12879163
000040 98 a0 d9 3d f0 81 e1 3d 3c 83 bc bd fe 60 13 3e
       0.10626334 0.11011112 -0.092047185 0.14392468
000050 04 6c bc bd 0f 78 f2 3d 3d 73 b0 3a c5 de 50 bd
       -0.0920029 0.118393056 0.0013462078 -0.0509937
000060 60 b6 b8 3d 94 b3 76 bc 4c fb d2 3b 8c ea 0b 3e
       0.0901916 -0.015057463 0.0064386483 0.13663691
000070 89 4a 68 3d 42 cb 6e 3d 89 8d 22 be 56 23 06 be
       0.056711707 0.05829931 -0.15874304 -0.13099417
000080 e3 09 f6 3b 7c b8 67 3e 1d b3 12 be 92 8e 62 3c
       0.007508503 0.22628969 -0.14326139 0.013827937
000090 fc 72 11 be 9c ef 80 3e f2 65 c0 36 02 23 bc 3d
       -0.1420402 0.25182807 5.733914e-06 0.09186365
0000a0 18 d5 8f 3d 1b 0a c4 bd 64 45 22 3d c4 1f 75 be
       0.07023066 -0.0957224 0.039616957 -0.23937899
0000b0 da 75 5c be 2b 47 ef bd c2 f4 b7 bd 79 7e 24 3e
       -0.21529332 -0.11683496 -0.08982231 0.1606387
0000c0 fa 55 aa 3e 1f 22 a1 3d 88 2a a8 3d 96 26 91 3d
       0.3326872 0.07867836 0.08211237 0.07087438
0000d0 e3 c0 79 3c 12 53 62 bd 60 ed 36 be 15 4a 17 be
       0.015243742 -0.055255003 -0.17863989 -0.14774354
0000e0 d5 36 aa 3d cf 9d 71 3d 44 bf be 3c 0d d4 2d be
       0.0831124 0.05898839 0.023284562 -0.16975422
0000f0 e0 01 c0 bd 92 f8 ef bd 7a 4c eb 3d bb b0 5c be
       -0.09375358 -0.11717333 0.11489196 -0.21551792
000100 97 c8 62 bd 83 88 1c be ee d0 b5 be 91 f2 51 bd
       -0.05536708 -0.1528645 -0.35510963 -0.05125672
000110 a2 d6 9c bb 4a a2 39 bd b1 e8 85 3e 84 b2 f4 3c
       -0.0047863284 -0.045320787 0.26154092 0.02987028
000120 51 af ac 3d 48 66 ec bc a3 36 b7 bd ec 5f d9 bb
       0.084318765 -0.028857365 -0.08945968 -0.006633749
000130 29 7b 8f bd 55 9f cc bd c0 65 64 3c ea c5 c8 bd
       -0.07005913 -0.09991328 0.013940275 -0.09803374
000140 ef d3 de bd ae b7 de bd 72 27 8a 3c 81 60 a9 bc
       -0.10880267 -0.10874878 0.016864512 -0.0206759
000150 b2 11 d5 3b 2a 3b a7 bd e8 2c 24 bd 01 49 d3 bd
       0.0065023536 -0.081655815 -0.04008189 -0.10316659
000160 34 07 42 3e ee e4 1d 3d 4d cb 28 bc 4b 39 0c 3e
       0.1894806 0.038548402 -0.010302377 0.1369373
000170 e3 d8 41 3e 58 bc 4c 3d c4 2e a1 3d 65 ac 35 3e
       0.18930392 0.049984306 0.07870248 0.17741545
000180 6d 5c 64 3e 70 3b 9d be 8a 51 20 3e e2 de 3b 3e
       0.22300883 -0.3070941 0.15656105 0.18346742
000190 da d5 9d 3c dc a4 85 be e3 23 a7 bd 0e 44 79 3d
       0.019267011 -0.2610234 -0.08161142 0.060855918
0001a0 aa 10 0e be 0a cf 76 3d 64 b5 ab 3c f4 6f a2 3d
       -0.13873544 0.06025604 0.020960517 0.079315096
0001b0 55 67 35 bd 52 48 a2 3d 93 b6 37 be 6b 35 53 be
       -0.044288 0.0792395 -0.1794074 -0.20625846
0001c0 e5 20 53 3d 86 1b 51 3d c7 6d ad bc b4 a4 9e 3c
       0.051545043 0.05105164 -0.02117051 0.019365646
0001d0 0e 69 98 bd cd d2 a8 3c 05 09 87 bd a3 db dd bc
       -0.074419126 0.02060833 -0.06593517 -0.02708227
0001e0 e5 be ac bc 92 65 a2 3c 99 38 50 bd cf 07 11 be
       -0.02108712 0.019823823 -0.050835226 -0.14163135
0001f0 a8 00 25 3e 09 e5 1a bd f8 d2 92 bd dd 5d de bc
       0.16113532 -0.03781608 -0.07169145 -0.027144367
000200 7e fa 17 3c 10 f4 af be 3a 68 16 3d 17 56 dd bb
       0.009276031 -0.34365892 0.036720492 -0.0067546475
000210 3d 7d f8 bc f2 1e 2f bd 94 3a 33 3e 2a 49 52 bd
       -0.030333156 -0.04275412 0.17502815 -0.051339306
000220 59 d6 ff bd 3d 43 34 3e 77 d5 85 3c 28 d5 2e 3e
       -0.124920554 0.17603774 0.01633714 0.170735
000230 e0 d0 fc bc fd 92 5d 3d af ff 41 3e dd 53 b3 3d
       -0.030861318 0.054095257 0.18945192 0.0875623
000240 de 68 08 bd c1 71 2a 3e b4 49 7d 38 c1 46 5a bc
       -0.033303134 0.16644956 6.0388542e-05 -0.013322533
000250 18 de df 3d a6 48 8c 3d 34 4f 15 3e c2 5c 5a be
       0.10931033 0.06849794 0.14580995 -0.21324447
000260 b0 4b c9 bd 18 fd 25 be 71 cb ef bd 15 15 dd bd
       -0.09828889 -0.16209829 -0.11708725 -0.10795037
000270 b6 7a cd bd 56 62 cc bd 2a 39 3c bd 76 aa 41 3e
       -0.10033171 -0.099796936 -0.045952953 0.18912682
000280 ac e0 6c bd 7b 05 81 3e 44 e0 16 3e 1a d8 84 bd
       -0.05783145 0.25199494 0.14733988 -0.064865306
000290 0b ed 8d 3d 91 5d af bb 04 6a 09 bd 3f cb 17 3d
       0.06929978 -0.00535173 -0.03354837 0.037059065
0002a0 15 25 0a 3c 07 22 0f be 07 76 56 be 0c 65 41 3e
       0.008431693 -0.13977824 -0.20943461 0.18886203
0002b0 55 79 22 be ad ab a6 bb f5 69 9d 3d 71 c5 e0 bc
       -0.15866597 -0.0050863833 0.07686225 -0.027437897
0002c0 8e 3c 4e 3d cf b3 de bc 12 07 be be 51 a3 c3 bd
       0.05035072 -0.027185349 -0.3711477 -0.095526345
0002d0 93 6b a6 bd 17 37 be 3b f6 3e d9 bd e3 0a 11 3d
       -0.08125987 0.005804907 -0.10607712 0.035410773
0002e0 d3 81 07 be 4f 2d 0f bd 4a 97 86 3d 54 31 4c 3e
       -0.13233118 -0.03495532 0.06571825 0.19940692
0002f0 e0 d2 6a 3c 1a 6e 40 3c 69 ef 66 bd 2f 3b 9e 3d
       0.014332503 0.011745 -0.056380663 0.07726132
000300 2b 65 a4 ba 38 96 df 3c dd cc a7 bd 74 b9 1a 3d
       -0.0012542357 0.02729331 -0.081933714 0.037774518
000310 f5 43 89 3d ee 8c b0 3d 1d 18 1b bb a4 a3 46 3e
       0.06702415 0.0862063 -0.0023665496 0.19398361
000320 c6 d5 c2 3e 75 cb a9 3d 1b 39 8a 3d 0d 76 df 3e
       0.3805372 0.082907595 0.06749173 0.43644753
000330 56 95 87 3e 08 54 31 bc 7e 02 a9 3d a4 69 05 bd
       0.26481122 -0.010823257 0.082524285 -0.03257145
000340 58 03 02 3e 68 f7 8c 3d 30 f2 e8 3d 85 03 9b bd
       0.12696588 0.068831265 0.113743186 -0.07569031
000350 f0 a1 de 3c d1 2c 81 bd 72 6f 23 3e 93 d7 a6 3c
       0.027176827 -0.06307376 0.15960482 0.020366466
000360 f6 00 c0 3c 94 84 bc ba 18 57 19 be 9d f8 85 3d
       0.023437958 -0.0014382773 -0.1497463 0.0654156
000370 f0 3d 97 3c df 27 63 3d 3d 63 0b 3e ea 63 f2 3d
       0.018462151 0.055457946 0.13612075 0.11835463
000380 c4 48 0d be 76 ae 3f 3b 4e 3d 1f 3d 80 f5 91 bd
       -0.13797289 0.0029248274 0.038876824 -0.071269035
000390 7a 91 b1 bd 90 a4 90 3d 0f fa 28 be 55 74 fe bc
       -0.086703256 0.07062638 -0.1650164 -0.03106133
0003a0 e1 d3 8b 3d 2e 8b 87 bd 33 24 a0 bd cb 66 4d 3c
       0.06827522 -0.06618343 -0.078194045 0.012536715
0003b0 f2 72 0e be 8a b1 91 bb ec 78 f0 bd 77 0d 20 3e
       -0.13911036 -0.004446213 -0.11741814 0.15630136
0003c0 11 f3 29 3e 63 69 bf 3d 69 72 e7 3d 83 d5 55 be
       0.16596629 0.09346273 0.11301119 -0.2088223
0003d0 89 56 a1 3c de 1c 0f 3c a0 59 c8 3d d9 b0 65 3e
       0.019694583 0.00873491 0.097827196 0.22430743
0003e0 42 7e 6f 3d 0f 84 35 3c 03 2c f1 3c 52 5d 7e bd
       0.05847002 0.0110788485 0.029439932 -0.062100716
0003f0 a5 72 f2 3c cc a6 67 be b1 df 3c 3e c5 c2 04 be
       0.029595682 -0.22622222 0.18444706 -0.12964924

actor_main.4.bias f4 [64]
000000 8f 5c 30 bb 46 34 74 3b 50 8d e4 3a dd a5 b0 39
       -0.0026910638 0.0037262603 0.0017437134 0.00033692914
000010 0b 9a b4 b9 18 14 c3 39 de 89 79 bb 1c dc 2d ba
       -0.00034447046 0.0003720827 -0.003807656 -0.0006632225
000020 ea 09 29 bb 0f a3 06 ba 48 e9 d2 3a 1b d7 e1 ba
       -0.0025793263 -0.0005135992 0.0016091252 -0.0017230244
000030 6a 01 2c 3b da d0 dc 3a 16 d3 b7 3a 94 88 32 ba
       0.002624596 0.0016846911 0.00140247 -0.0006810513
000040 72 c1 77 ba 65 19 09 ba 75 fb e8 3a ab 31 05 ba
       -0.0009451128 -0.00052299193 0.0017775135 -0.00050809485
000050 56 a6 57 3a 0c 56 40 3a cd f2 b3 ba cd a4 19 39
       0.0008226385 0.0007337041 -0.0013728976 0.0001465261
000060 af 3a 1f 3b 6e a5 28 39 4f 42 11 3a de 94 11 3b
       0.0024296453 0.00016083356 0.0005541192 0.0022213976
000070 81 54 22 3a 42 7a e7 ba e2 22 b5 3a 38 63 5e ba
       0.00061924016 -0.0017660337 0.00138196 -0.00084834127
000080 04 a5 c5 ba b7 85 b9 ba b3 00 e3 ba f7 8b 7f ba
       -0.0015079086 -0.001415423 -0.0017318934 -0.00097483344
000090 8e b0 d4 b8 5a fb f9 3a 6e 08 68 ba de d4 af b8
       -0.000101418336 0.0019072101 -0.0008851354 -8.3843e-05
0000a0 f0 49 1e 3b bb 0b 92 39 e2 b6 f1 39 cf 40 84 ba
       0.0024152957 0.0002785603 0.0004610336 -0.0010090115
0000b0 aa 89 f1 3a 76 a1 cd 3a e2 e5 b2 3a c2 3f 78 3a
       0.0018427868 0.0015688378 0.0013648833 0.000946995
0000c0 e0 22 e4 3a fd 9c 05 bb 94 2a 0c bb 59 75 ac 3a
       0.0017405413 -0.0020387762 -0.0021387683 0.0013157531
0000d0 54 bc 1b b8 3d 21 c3 3a 9e 38 50 3a 06 f4 b5 3a
       -3.7130274e-05 0.0014887225 0.0007943007 0.0013881929
0000e0 20 d1 61 ba c1 37 d3 ba 29 11 25 3a 7b 26 0f 39
       -0.0008614231 -0.0016114638 0.00062968076 0.00013651878
0000f0 15 05 c0 ba 1f d4 36 3a bc 31 c3 ba 54 ab f7 b9
       -0.0014649952 0.00069743575 -0.0014892141 -0.0004723916

actor_main.6.weight f4 [32, 64]
000000 79 6f a5 be de f7 e0 bd 6b d2 5a be 94 ef dd be
       -0.3231161 -0.10984777 -0.2136933 -0.43346846
000010 ef ce 52 be e5 24 a0 be 74 26 a2 3c 09 72 6e 3d
       -0.20586751 -0.31278148 0.019793727 0.05821422
000020 44 5c a1 bc 52 f6 69 3e d9 4e 3d be b6 c0 83 bd
       -0.019697316 0.2284787 -0.18487109 -0.06433241
000030 9e da 54 3d bf b5 b6 bd a7 8e 66 be 18 73 15 bd
       0.051966302 -0.08921384 -0.22515355 -0.036486715
000040 1d 14 05 3d b9 10 e4 3d 84 a5 dc 3e 77 e5 30 3e
       0.032489885 0.11136002 0.43095028 0.17275034
000050 c1 b9 63 bd 6a 3a 06 be 60 ba 40 be 08 4c fa 3d
       -0.05559707 -0.1310822 -0.18821096 0.12221533
000060 f2 41 cf be 5e ee ff 3b 79 34 e9 3d 5e 96 87 3e
       -0.4048 0.007810398 0.113869615 0.2648191
000070 75 27 50 bd 21 03 85 bd 2f af 80 3e 54 19 9f be
       -0.05081888 -0.064947374 0.25133654 -0.3107401
000080 08 d9 8a bd 89 83 5a 3c bc ef a7 3e f6 72 40 3d
       -0.06779677 0.0133370245 0.3280009 0.046984635
000090 d0 5b 5e be b1 88 1a 3e 4b fd 25 be 94 1c dc 3c
       -0.21714711 0.15091206 -0.16209905 0.026869096
0000a0 fb a0 ce bd 6a ba ac 3d 2c b2 5c 3e 89 d8 01 3d
       -0.10089298 0.08433993 0.21552342 0.031700645
0000b0 66 4f 4f 3e 07 01 92 3e ec be 16 be 24 4b ff bd
       0.20245132 0.2851641 -0.14721268 -0.12465504
0000c0 5b fb 84 3d 8d 64 b9 bb fe 11 a5 bd 74 7a 6c 3d
       0.06493255 -0.0056577385 -0.08060072 0.057733968
0000d0 7d 02 40 3d 92 4d 78 3b 57 6e 0f be 21 d6 d2 bd
       0.046877373 0.0037888032 -0.14006935 -0.10294748
0000e0 62 c6 42 bc b7 c3 18 be fb bd 04 bd 14 63 62 3c
       -0.011888118 -0.1491841 -0.032407742 0.013817567
0000f0 35 66 a1 3e 7a 8d da bd 95 bb 32 bd 4e a4 1f be
       0.3152329 -0.10671516 -0.043635923 -0.15590021
000100 85 d5 49 be 19 e1 b1 3d 7e 5c 95 3e 27 bb 76 bd
       -0.19710357 0.08685512 0.29172128 -0.060237076
000110 31 36 c2 3d bc 09 0d be 9a bd 94 3d 95 00 85 3e
       0.094829924 -0.13773245 0.07262726 0.25977007
000120 52 45 63 bd 81 50 0d be 03 6f 25 be b4 6b a1 3c
       -0.05548603 -0.13800241 -0.16155629 0.019704677
000130 dd 7d 83 be cc 0d 8d 3c 74 85 cd be 40 ca 1d 3e
       -0.25681964 0.017218493 -0.4014088 0.15409184
000140 ea 1f 9c be 33 e0 f3 bd 33 1c e0 3d 16 6f 78 3e
       -0.30493098 -0.11907997 0.109428786 0.24261126
000150 89 89 88 3b 9f 05 d3 bc 3e 53 01 be 71 b7 69 3e
       0.004166786 -0.025759516 -0.1262941 0.22823884
000160 c5 84 f9 3d 98 59 06 bd c3 c9 94 bd 92 a0 42 be
       0.12183527 -0.032800287 -0.072650455 -0.19006565
000170 60 ed 21 be 8a 91 40 3d 0b 2d 3b bd 9b 76 4e 3e
       -0.15813208 0.047013797 -0.045697253 0.20162432
000180 dc 6e 80 bd 9d fc 65 3e a2 2a 69 3d 32 fc 24 be
       -0.06271145 0.22459646 0.056925423 -0.1611183
000190 e8 18 8b 3d 5d 55 83 3e ec d3 dd 3d 6b 80 85 3e
       0.0679186 0.25651065 0.108314365 0.26074538
0001a0 1a ff 10 3e 32 50 5d bd 72 32 1e be ea df d2 be
       0.14159814 -0.05403156 -0.15448931 -0.41186458
0001b0 42 14 34 bd b3 31 85 be e4 e6 26 bd 59 ad 80 bd
       -0.04396463 -0.2601448 -0.04074754 -0.062830634
0001c0 cb bd 77 3e 28 6a 0a 3e 44 08 23 3e d7 1d 3c 3e
       0.24193494 0.13517058 0.15921122 0.18370758
0001d0 00 4d ab be 14 bc d9 3d 75 c8 9b bd 07 c8 f8 3d
       -0.33457184 0.10631576 -0.076065935 0.12147527
0001e0 06 3e b2 be 8f 5f 01 be 7c 42 67 be 05 44 e0 bd
       -0.34812945 -0.12634109 -0.22583956 -0.10950474
0001f0 eb db a3 3d 5f 9a ae 3c 67 0b 6f be bb ff 23 3e
       0.080009304 0.021313844 -0.23344193 0.16015522
000200 55 62 60 bc 5e 78 31 3e db c3 0e be 5e 26 75 be
       -0.013695319 0.17331073 -0.139419 -0.23940417
000210 a1 72 bb bd 40 2f 45 bd 8c 07 a4 be 4b a0 b0 3c
       -0.09152723 -0.048140764 -0.32037008 0.021560809
000220 92 28 6c 3c 37 e6 c2 be f5 63 15 bd cd c0 45 3d
       0.01441397 -0.38066265 -0.03647228 0.048279572
000230 6a f7 80 3e 77 e8 e4 3d a5 1e 66 3d 77 db 0f be
       0.25188762 0.11177152 0.05618157 -0.14048563
000240 bf 22 87 3d 20 ec 62 be 90 12 23 be 87 d7 22 bd
       0.06598424 -0.22160387 -0.1592505 -0.039756324
000250 1c 95 f3 bc ec f0 ee be 42 56 9b 3e 46 9a ae bd
       -0.029734187 -0.46668184 0.30339247 -0.08525519
000260 79 35 8e be fe 7d c4 bb e4 74 3d be 6d 3e f1 3d
       -0.2777517 -0.0059964648 -0.18501621 0.11779485
000270 ca 31 f8 3d 5f e4 83 be 4a 70 a4 3b 7c b9 5d 3d
       0.121188715 -0.2576017 0.0050182687 0.05413197
000280 8f f0 31 3e 97 28 a4 3e f3 2d 1e be 5e 09 0f bd
       0.17376922 0.32062218 -0.15447216 -0.034921043
000290 ee 1b c3 3d 84 f2 81 3e 4d 0c 38 bd 08 87 cc 3c
       0.095268115 0.25380337 -0.044933606 0.024966732
0002a0 5b 07 4e 3e fb 44 de 3d 9e 44 26 3e 2f 92 8c be
       0.20119993 0.10853001 0.16237113 -0.2745528
0002b0 01 0b 14 bb 99 53 10 3d ec 1d d9 bd 55 32 72 3c
       -0.0022589567 0.035235975 -0.1060141 0.014782508
0002c0 59 65 80 bd 71 fa e6 bc 53 c9 35 bd a0 b2 5c 3e
       -0.062693305 -0.028195592 -0.04438145 0.21552515
0002d0 6c 72 76 be 27 6e ac be 3f 82 95 3e 87 a2 0b be
       -0.24067086 -0.3367779 0.29200932 -0.13636218
0002e0 51 de 50 be 2d f8 95 3d ce dc 77 3e ff db 11 3e
       -0.20397307 0.073227264 0.24205324 0.14244078
0002f0 f6 74 48 be ef 36 46 3d a9 66 6a ba 04 ae 39 be
       -0.19575867 0.048392233 -0.0008941689 -0.18132788
000300 ed 8d 69 bd 87 fe e8 3d ea 23 f5 bd f9 83 8e bd
       -0.057020117 0.11376672 -0.11969741 -0.069587655
000310 19 0c 58 be 9c a0 21 3e 1b c1 23 3d 6b 92 49 3e
       -0.21098365 0.15783924 0.03997908 0.1968476
000320 d9 0a c6 3d b5 49 ca bd b6 1c 58 be bd 6f fa 3d
       0.09670038 -0.0987734 -0.21104702 0.12228344
000330 2d e8 20 be 75 77 8d 3e 24 af d5 3d 90 2b 9c bd
       -0.15713568 0.276302 0.10433796 -0.076254964
000340 6b 36 c2 3d 52 4d 38 3e 88 0d 99 b9 2c 89 ff 3d
       0.09483036 0.17998245 -0.00029192516 0.12477335
000350 2e a1 6f 3e 87 25 35 3e 51 ce a5 bd 09 80 15 bf
       0.23401329 0.17690097 -0.08095992 -0.5839849
000360 71 9b 1a be 79 a6 e7 bd b2 04 33 be e9 77 3a bd
       -0.15098359 -0.11311049 -0.1748226 -0.04552451
000370 78 86 be 3e 43 4a c6 bd 4f 6c bb 3e 16 03 b1 bd
       0.37211967 -0.09682133 0.3660607 -0.08643167
000380 14 aa 14 be f3 af ac 3d b4 ad 6f bd d6 cc b9 be
       -0.14518005 0.08431997 -0.058515266 -0.3628909
000390 8e 3c 6f be 7c 58 7f be 80 9c aa 3e c9 9e 94 bd
       -0.23362944 -0.24936098 0.33322525 -0.07256848
0003a0 ad 1c 6c bd 4b 87 a3 bd 82 dc 82 bd ea 43 95 bd
       -0.057644535 -0.079847895 -0.06389715 -0.07288344
0003b0 2e b3 79 be f7 55 ba bd 03 20 6d be 4c 40 c3 bc
       -0.24384758 -0.09098428 -0.23156743 -0.02383437
0003c0 d4 f6 09 3e eb 3f a3 bd 67 4f 9b bd bb 96 50 3e
       0.13473064 -0.07971176 -0.07583504 0.20369999
0003d0 52 68 c6 3d 16 e1 72 bd 69 5d 2f be 48 10 85 bc
       0.09687866 -0.05929669 -0.17125477 -0.016243115
0003e0 fc 01 81 3d 0f 79 c7 3d bc be cf bd 31 0b 03 be
       0.062992066 0.09739887 -0.101438016 -0.12797238
0003f0 8d 72 a0 bd 1e 26 11 be 16 3f 7e be b8 21 39 3e
       -0.07834349 -0.14174697 -0.24828753 0.18079269

actor_main.6.bias f4 [32]
000000 d6 72 e4 3a ff 18 9c 39 a7 11 72 3a ff e9 53 ba
       0.0017429243 0.00029773262 0.0009234198 -0.00080838794
000010 d1 04 01 ba a3 78 ca ba 12 23 7f 3b 22 83 17 b9
       -0.0004921677 -0.001544733 0.0038930816 -0.00014449333
000020 ba 3b 50 39 f0 f8 24 3a df f6 6e 3b 41 f2 5e ba
       0.00019858676 0.0006293198 0.0036463065 -0.00085047266
000030 69 1b cf 3a 5a 97 19 3a ac 89 24 ba 27 e1 12 bb
       0.0015801016 0.000585904 -0.0006276618 -0.0022412033
000040 4f 8e 91 39 10 85 65 ba e1 e1 da 3a 18 ec df ba
       0.00027762583 -0.00087554846 0.0016699397 -0.0017083911
000050 af a0 ab 39 d5 a6 27 3b 67 52 e8 39 f7 45 a6 38
       0.0003273538 0.0025581617 0.00044311883 7.928529e-05
000060 6a 24 91 3a 67 4d e5 b9 92 ae 4d 3a 2d 19 80 bb
       0.0011073474 -0.00043735953 0.00078461424 -0.003909251
000070 aa 0d 5e b9 48 5e 59 bb 88 31 4e ba 74 20 c0 ba
       -0.0002117666 -0.0033167768 -0.0007865657 -0.0014658109

actor_alpha.0.weight f4 [12, 32]
000000 b3 d7 6f ba 83 6f 96 3b 72 d3 8e bb 67 5d d4 3b
       -0.0009149268 0.00459093 -0.0043587023 0.006480861
000010 b6 48 9e bb 33 96 84 3b 89 19 76 bb 9c 06 21 b9
       -0.004830445 0.0040462255 -0.0037551841 -0.00015356619
000020 2a 40 62 3b 2d 5f 32 3b dc 4a 1e bb 64 3e 0b 3a
       0.0034523108 0.0027217374 -0.0024153506 0.0005311726
000030 6b 9c 65 bb 2c 28 21 3c df 98 46 3a df 18 ca 3a
       -0.003503586 0.009836238 0.000757588 0.0015418789
000040 de 5a 68 3b 29 16 1a bb 11 74 88 3b 36 ce 19 bb
       0.0035454552 -0.0023511744 0.004164227 -0.0023468859
000050 ed b3 06 bb ca a5 af 3a 30 86 74 3b 0c 40 e4 ba
       -0.0020554021 0.001340085 0.0037311427 -0.0017414107
000060 dd 0f 29 3b 0e 6d 5b bb 60 ab 96 ba e7 71 30 3a
       0.0025796809 -0.003348175 -0.0011495166 0.000673084
000070 68 e2 fd 3b 5a ef 49 3b 0d 7a d0 bb 68 69 13 3c
       0.007747937 0.003081283 -0.006362206 0.008997299
000080 ab b0 0b bb 48 fa eb ba f5 02 fe bb ec f1 24 3b
       -0.002131502 -0.0018003667 -0.0077518173 0.002516861
000090 da d6 53 3a 09 56 fd ba dc 79 b5 3b cc a3 62 ba
       0.00080810266 -0.0019328009 0.0055382084 -0.00086456235
0000a0 cd 21 92 3b ea b0 5b 3b 83 9d bc bb cb 00 12 bb
       0.004459596 0.0033522197 -0.0057560815 -0.0022278305
0000b0 2f 43 e4 ba a1 a2 35 39 91 03 07 bb f4 2f 30 3b
       -0.0017415042 0.00017322089 -0.002060149 0.002688405
0000c0 28 12 aa 3a a2 fd 94 38 62 c6 1d bb 32 7b 9e 3b
       0.0012975382 7.104433e-05 -0.0024074544 0.0048364634
0000d0 b3 0d 92 ba 3b 1f 25 3a 46 b8 e4 ba c8 36 2a 39
       -0.0011142999 0.0006298904 -0.0017449937 0.00016232871
0000e0 78 21 65 3b 63 7e 95 bb ed a6 5e 3b c1 18 e4 3b
       0.0034962576 -0.0045621856 0.0033974007 0.0069609587
0000f0 24 99 3a ba dd d9 07 3c c2 f5 25 3a aa ee 7a 3a
       -0.00071181566 0.008291689 0.0006330871 0.0009572307
000100 46 01 a0 ba 1c b7 50 3a 24 47 cd 3a d4 f4 37 3a
       -0.0012207411 0.0007961856 0.001566146 0.0007017378
000110 6d a0 ff 3a c4 61 75 bb f3 c9 0f 3b 9c b5 e3 3b
       0.0019502767 -0.0037442306 0.002194044 0.0069491398
000120 04 34 45 3b 15 2d 48 3a 15 33 28 bb 0c 93 db ba
       0.0030090818 0.0007636112 -0.0025665213 -0.0016752197
000130 21 8f 8f ba 6c 03 04 bb 86 eb 98 ba 33 03 d7 3a
       -0.001095269 -0.002014364 -0.0011666871 0.0016404152
000140 57 0b 80 3b 20 d8 2c 3c 8d 0c a3 3b b6 be 84 b9
       0.003907602 0.010549575 0.0049758614 -0.00025319093
000150 d5 d0 bb ba 07 25 ba bb 52 19 b1 3b 00 00 54 ba
       -0.0014329205 -0.0056806835 0.0054046297 -0.0008087158
000160 ce 1b ca 3a 3c 92 13 bb e5 fe ab bb 29 5f 8f 3b
       0.0015419663 -0.0022517582 -0.0052488917 0.0043753576
000170 1d 3a 43 bb a5 91 b4 3a 96 cf ce bb 3f 5b 36 ba
       -0.0029789277 0.0013776316 -0.0063113673 -0.0006956346
000180 4f d7 04 bb 86 b8 29 3b 5d 8e 9a 3a 88 e9 24 3b
       -0.0020269935 0.0025897338 0.0011791695 0.002516361
000190 a4 a8 0f ba b5 ad 61 bb f3 d7 fa ba d7 ee 44 ba
       -0.00054801465 -0.0034435813 -0.0019137844 -0.00075123966
0001a0 68 2c e9 3a 55 57 c0 3a 39 6e dc 3b 35 a0 a7 b9
       0.0017789723 0.0014674464 0.0067270068 -0.00031972086
0001b0 e0 c7 01 3b 5a 01 79 3a a3 cf 8d b9 03 eb 9c bb
       0.0019802973 0.00094987976 -0.00027048317 -0.004788758
0001c0 89 84 6e 3b a4 48 47 ba 70 aa 8a b9 fc 69 86 3b
       0.0036394915 -0.0007602072 -0.00026448397 0.00410199
0001d0 b6 f5 2f ba f3 f4 07 3b b3 91 0c bc 94 59 56 3b
       -0.0006712334 0.0020745366 -0.008579659 0.0032707201
0001e0 44 f4 f4 3b 34 15 86 bb d6 98 cc bb 64 a8 9a bb
       0.007475408 -0.004091883 -0.0062438054 -0.0047197808
0001f0 c5 69 00 3b da 40 27 39 ee df 01 3a 5e 6d d2 ba
       0.0019594294 0.0001595052 0.00049543276 -0.0016054322
000200 51 ba 16 bb cd 16 98 3a 86 1e d9 b8 18 0d 4c ba
       -0.0022999237 0.0011603475 -0.00010353052 -0.00077839335
000210 51 d2 b8 bb 17 91 00 bb 18 58 bb ba c4 a1 23 3c
       -0.005640306 -0.001961773 -0.0014293222 0.009987298
000220 9d 8e 86 38 7a d1 30 bb 95 45 30 ba fd 62 52 3b
       6.416182e-05 -0.0026980327 -0.0006724236 0.0032102459
000230 a0 15 e8 bb 95 4e ef 3b e0 58 49 3b c5 5c da 3a
       -0.007082656 0.007303069 0.003072314 0.0016659728
000240 51 e2 3a bb 5c 85 61 3b da 04 6e bb 93 b2 e2 3a
       -0.0028516243 0.0034411764 -0.003631881 0.0017295651
000250 7f c5 84 3b 32 07 3d 3c d4 52 19 3b 8d 9c e2 bb
       0.0040518637 0.01153736 0.0023395317 -0.006915635
000260 d7 ac d7 ba fe 14 85 3b 8c 70 9a bb 10 e2 a5 3b
       -0.0016454709 0.0040613404 -0.0047131237 0.005062349
000270 ad b8 4d bb 11 fa 83 3b 78 c4 1a bb b1 2f be 3a
       -0.0031390593 0.004027613 -0.002361564 0.0014510063
000280 9d 26 78 bb 1c 0c a4 3a 9a 7c a4 ba f4 79 fc 39
       -0.0037864812 0.0012515816 -0.0012549341 0.00048156048
000290 1f 0b 39 bb d6 54 e8 3b ae 43 8d bb fb 4d 84 3b
       -0.0028235388 0.0070901914 -0.0043110466 0.0040376163
0002a0 44 ec ae b9 54 8f d2 3b 0e 9c 84 bb ff 0d 9f ba
       -0.00033363898 0.0064257775 -0.0040469235 -0.0012134908
0002b0 79 e0 a6 bb 0e 90 c3 bb c0 47 96 3b 3f 53 25 3b
       -0.005092677 -0.0059681004 0.00458619 0.002522662
0002c0 0c 94 ec 3b c5 4a eb 3a c4 6c 06 39 14 3c b6 3a
       0.007219797 0.001795136 0.00012819754 0.0013903403
0002d0 4e 8b 8f 3b 5a 23 43 bb 5a 88 83 3b c2 09 29 3c
       0.00438062 -0.002977571 0.004014057 0.010317268
0002e0 1b cd 40 bb 43 9a 86 bb 13 04 84 bb 9a 2c 22 bb
       -0.0029419127 -0.004107745 -0.004028806 -0.0024745823
0002f0 6d 6b 7e 3a 36 c1 90 3b 77 be 46 ba cf 80 4a 3b
       0.0009705339 0.004417564 -0.0007581482 0.003089953
000300 12 76 9c b9 8d 34 49 bb f8 59 3e ba 71 4f 78 bb
       -0.00029842608 -0.0030701489 -0.0007261331 -0.0037889148
000310 1d 2e 06 3c fb de ff ba fa 5e df 3a 8e 14 f4 3a
       0.008189705 -0.0019521409 0.0017041855 0.0018621848
000320 af 48 64 b9 a0 a7 61 3b ac f3 9d ba dd 6a 8c bb
       -0.00021770851 0.0034432188 -0.0012050769 -0.0042852
000330 ef f1 f6 3b c6 c8 2d 3b 4e 95 76 ba 29 59 ed 37
       0.007536165 0.0026517375 -0.00094064034 2.829412e-05
000340 9c e3 dc ba 31 38 21 bb 42 e8 f2 bb 4a f7 27 3b
       -0.0016852501 -0.0024600143 -0.007412941 0.0025629574
000350 fc d6 ec 3b fe 23 51 3a 68 d2 b0 3b 43 d7 d6 ba
       0.0072277766 0.00079780805 0.005396176 -0.0016391057
000360 fd 2d 8c bb c8 5d d9 3b 29 5c a6 ba 4d d9 69 3b
       -0.004277943 0.006633494 -0.0012692261 0.00356825
000370 a5 f0 8b ba a0 52 5a bb 65 ef d4 3b 46 b2 64 ba
       -0.0010676576 -0.0033313408 0.0064982646 -0.00087240746
000380 ee ef 2c bc da b2 fd 3a 07 0e 8e 3b 3f 52 d5 b9
       -0.010555251 0.001935567 0.0043351683 -0.00040687804
000390 e8 57 29 bb d8 86 1d b9 72 fb ae bb 38 7b f5 3a
       -0.002583975 -0.0001502292 -0.005340033 0.0018728739
0003a0 dd 92 8d bb a1 32 a2 bb 96 a9 a9 ba 4a 6f 8e 3b
       -0.004320486 -0.004949883 -0.0012944217 0.004346763
0003b0 45 29 72 3b c8 0d ad ba 52 a6 d1 bb 51 f3 26 bb
       0.0036950868 -0.001320296 -0.0063980008 -0.0025474618
0003c0 e3 8f 02 bb 7d 1c 48 bc 21 98 34 bb 26 e5 4c 3b
       -0.001992219 -0.012213823 -0.0027556496 0.0031264513
0003d0 4f ae 34 3b d0 c6 03 bc 18 28 11 3b 16 cd 04 bc
       0.0027569716 -0.008043006 0.0022149142 -0.008105537
0003e0 85 f9 f6 3b e4 20 ac bb 6e 11 37 ba 71 c5 2b ba
       0.0075370693 -0.0052529443 -0.0006983493 -0.00065525534
0003f0 d1 a2 a8 3b f2 5c 24 ba 3e fa bd bb 66 30 8c ba
       0.0051463624 -0.00062699534 -0.0057976535 -0.0010695576

actor_alpha.0.bias f4 [12]
000000 74 e8 4a bb 0a df f7 bb 28 f1 c8 ba 3e 6b 54 3b
       -0.0030961307 -0.00756443 -0.0015330659 0.0032412554
000010 82 dc e1 ba ad 07 88 bb 32 59 14 b8 44 29 38 bb
       -0.0017231854 -0.0041513056 -3.536902e-05 -0.0028100768
000020 84 9e 65 bb 9d 0c fd b9 77 0c b3 3a 9b 60 a5 bb
       -0.003503711 -0.00048265318 0.0013660331 -0.0050469167
