EasyCamera/Resources/Models/SAC.onnx (onnx, 645459 bytes, 10 tensors)

actor.0.weight f4 [128, 72]
00000000: a9ea 003b 26e5 b9bb 0567 8ebb a273 033d
00000010: 92df 8a3c 779c dcbb 106d 0ebd d040 cd3c
00000020: 9bb9 d13e 78b0 de3f e955 aa3c efab 763c
00000030: dad1 b53c f83d 003d 6353 7abc 19b4 aebd
00000040: c36c 8f3c a5b9 a73b 1163 aabb e3e3 a73c
00000050: 74a3 ec3a a00c 943c 79e8 b33c 19d7 1c3c
00000060: c285 f1bb df8f 633c 3915 153b f944 e5bc
00000070: 1613 7e3c fbdc 9f3c 3df3 b2bc f9e4 ae3c
00000080: 999d 5d3c 889e 933d 00d8 163c 942e 933c
00000090: 68c7 62bc 2972 843d a910 8a3c 0085 1a3d
000000a0: d87b a1bc 1a6e 3f3b 4c5e 36ba a72c ef3b
000000b0: 3ffc a33c 432b b0bd 330e 5dbc ba84 19bc
000000c0: 8549 593b 2e54 1ebd 9725 d43b f4d4 7a3d
000000d0: 85db 1bbc f7e6 b8bb ba80 023c b9eb c53a
000000e0: 2fd1 fabc 80e6 e3bd dc59 4fbc 47df a9bc
000000f0: 0ef4 433d d576 3cbb f2ad 89bc c208 2e3d
00000100: d721 d3bc 79d4 013c 2da3 7e3d 4944 e9bd
00000110: bb5a 963c 2f17 a03c c086 4f3b cfca d5bc
00000120: 70d5 ba40 d644 8fc0 d200 c4bc e29b d53c
00000130: 5796 4fbb dfc5 633d 79ad ea3c 7270 4db9
00000140: 8c86 33bd 2f05 8a3c 836d a93c 166f 613b
00000150: 521b 52bc 4311 83bc 9453 be3c 6a5b 2abc
00000160: eada 6f38 7488 93bc 49b1 0bbd 3fda a4bc
00000170: cef2 cf3b 19ee c23c 92cb 97bb af78 2ebc
00000180: 6c85 44bd 6460 693c 7c19 a93c 2b29 abbd
00000190: 9ee4 1a39 c9e3 55bb 73eb 093d f550 b23c
000001a0: 6f22 cc3c cd36 4bbd f1ae 18bc 4fef 58bc
000001b0: a6b3 e03c 8743 e33c 6d5b c43c a3c1 acbb
000001c0: 16fd 3dbc 285f 9e3b b0f3 0e3b 5d3c a23c
000001d0: c70b 84bc 3e52 193d 98aa a3bc afca 0d3c
000001e0: 9cf3 45bc 14fb e53c 094a ecbb a44c 3dbc
000001f0: a928 59bc 724a d23c 1ad4 37bc 348e dcbc
00000200: 35c6 efbc a41f f1bc bd29 17bc c60b 6abb
00000210: 357f b93d 439f 87bc c8b6 053d c99a bebd
00000220: 2f94 f23b c374 f93b a33f b93b 2ebe 17bd
00000230: cfab 44bd a428 223e 4e47 073d 6fc9 45bc
00000240: e8df 8abb 7413 82bd c402 7a3d b4c4 87bd
00000250: 92d7 11bd 5890 e33b c9e2 483d 8d01 17bc
00000260: ba4c b23c 393a e0bd 4e09 b8bc c6fa 43bc
00000270: 105e 03be f4ee 89be 8f34 fb3d aaf8 853d
00000280: 96f8 553d 6220 12bd f1c0 be3e f17d 8638
00000290: ac24 2fbe d7b6 78bd 4d67 a6bd 9104 fabc
000002a0: 8289 483e 98c2 d9bc a88a bf3d fb5b 59be
000002b0: 651a 3abc 14d3 81bc ddfa 9e3b 6d57 013c
000002c0: 17ee ddbc 3b46 00be cdd1 72bd 9312 13bd
000002d0: c3ba 2ebe d9c6 453d dc92 89be 9d65 a13e
000002e0: 6aef 3f3d 83a8 0abc 49b3 52be 824b 093e
000002f0: cbd7 76be 4889 3c3e 7e7a f83c 3aaa cb3d
00000300: dafc 7fbe 287d 443d 7c98 02bd 8360 573e
00000310: a656 acbc 0ee6 07bd 099e 523e a676 823e
00000320: fd40 b7bd ed2c 00be 8cbc b53c aaf3 013b
00000330: 5e4e cc3e 9097 ff3e 7db0 d73c b8e0 a1bd
00000340: a379 593d 1093 f03d 022b 91be 62c4 3dbf
00000350: e58b f63e 3aa8 64be 053c 1cbe 3156 26be
00000360: 5647 0e3e 84ee 7c3d e8e0 da3d 95c1 aabc
00000370: 3072 04bb e590 45be df2f 7abf 679f 393f
00000380: 6edb 3fbd 9e88 c23d caa3 6e3d b343 823a
00000390: 9fc9 f73e 6ff7 07be ca33 94be 8a14 f5bf
000003a0: 2377 093c 8db2 893d 6aa6 0e3e 0fb3 ddbd
000003b0: 7333 3cbe e5db 86bf 4118 15bd 57ec c0bc
000003c0: 3751 543d 8cd2 263d 934a 293d 2703 dfbe
000003d0: 0bec 0f3e 13f3 383d cb49 0fbd 78f8 003d
000003e0: 22d5 5ebb ba31 bfbb 81ca 163c 75fb f23b
000003f0: 9d14 a6bc cd83 383e c927 033d adc4 363e
0.0019671118 -0.0056730686 -0.004345777 0.032092698 0.01695231 -0.0067325193 -0.03477198 0.02505532
0.40961918 1.7397604 0.020792918 0.015055641 0.022194792 0.031309098 -0.01527867 -0.08530445
0.017507916 0.005118566 -0.005199798 0.020494407 0.0018054084 0.018072426 0.021961438 0.009572768
-0.0073706815 0.013889282 0.0022748245 -0.02798699 0.01550748 0.019514551 -0.0218445 0.021349417
0.013526344 0.07207972 0.009206772 0.017966546 -0.0138414875 0.06467087 0.016853647 0.037724495
-0.019712374 0.0029209913 -0.00069568004 0.007299024 0.020017741 -0.086020015 -0.013492155 -0.009370023
0.0033155393 -0.0386545 0.0064742076 0.061238244 -0.009512787 -0.0056427675 0.007965261 0.0015100158
-0.030617325 -0.11127949 -0.0126557015 -0.02073635 0.04784017 -0.0028757353 -0.016806576 0.04248882
-0.025772972 0.007924193 0.062167335 -0.113899775 0.01835381 0.019542305 0.003166601 -0.026097683
5.8385544 -4.477153 -0.023926172 0.026075307 -0.0031675303 0.055608626 0.028647171 -0.00019592213
-0.043829486 0.016848175 0.020682102 0.0034398488 -0.0128238965 -0.015999442 0.023233213 -0.010397771
5.718592e-05 -0.018009402 -0.03410462 -0.0201236 0.0063460832 0.023795174 -0.004632422 -0.01064889
-0.047978804 0.014244173 0.020642035 -0.083574615 0.00014771751 -0.0032636991 0.033671807 0.021767119
0.024918763 -0.04961281 -0.009319053 -0.013240649 0.027429413 0.02774216 0.023969376 -0.0052721067
-0.011595985 0.004833121 0.002181273 0.019804174 -0.016118897 0.037431948 -0.019978806 0.008654281
-0.012082007 0.028073825 -0.007210974 -0.011553917 -0.013254323 0.025670264 -0.011220003 -0.026923276
-0.029269317 -0.029434033 -0.00922626 -0.0035712584 0.09057466 -0.016555434 0.032645017 -0.09306867
0.007402919 0.007612796 0.005653338 -0.037046604 -0.048015412 0.15835816 0.033026986 -0.012071951
-0.0042381175 -0.06351367 0.061037794 -0.06629315 -0.035605974 0.0069446974 0.049044404 -0.009216678
0.021765102 -0.10948605 -0.022465374 -0.0119616445 -0.12828851 -0.2694012 0.12265884 0.065415695
0.052239023 -0.035675414 0.37256578 6.413076e-05 -0.17103833 -0.060721245 -0.08125172 -0.030519756
0.19583705 -0.026582047 0.093526185 -0.21226494 -0.011358832 -0.01584772 0.0048516826 0.007894379
-0.02709107 -0.12526791 -0.059282113 -0.035906386 -0.17063431 0.04828534 -0.26869857 0.31522837
0.046859182 -0.008463028 -0.20576204 0.1340771 -0.24105756 0.18411744 0.030331846 0.099445775
-0.24998799 0.04797092 -0.0318837 0.2103291 -0.021037411 -0.03317838 0.20568098 0.25481147
-0.089479424 -0.12517138 0.022184633 0.0019829073 0.3990354 0.4992032 0.026329273 -0.0790419
0.053094517 0.117468 -0.28353125 -0.7412778 0.48153606 -0.22329798 -0.1525727 -0.16243817
0.138944 0.061750904 0.10687429 -0.02084426 -0.0020209663 -0.19293554 -0.97729295 0.72508854
-0.046840124 0.09498714 0.05826167 0.0009938389 0.48396012 -0.13277982 -0.28945762 -1.9146893
0.008390221 0.06723509 0.1393067 -0.10825168 -0.18379001 -1.0535856 -0.036400083 -0.023550196
0.051835265 0.040728137 0.041330885 -0.43557093 0.14054887 0.04515369 -0.034982484 0.03148696
-0.0034001549 -0.0058347853 0.009203554 0.00741523 -0.020273501 0.18019028 0.032020364 0.17848463

actor.0.bias f4 [128]
00000000: 6f0d 1fc0 5f6f a7c0 c3ac abbd 32f3 9bbf
00000010: d41d 3abf 3bac 45c0 2dc5 1d3d ffee 293f
00000020: 704c 1bc0 f59f aa3f a869 6d40 614c 1f40
00000030: aed8 90bf 4455 6dc0 b7c1 0fbd bb71 f43f
00000040: 0231 c03f 4682 15c0 7302 a940 6747 b1bf
00000050: 2c88 afbf 4827 e8bf 8f97 b23f 43b1 aabe
00000060: 92ae 5dbf 36cc 0f3e 55dc 56c0 0733 13bf
00000070: 94c1 19bd 0ca7 b53f 6f13 4c3f 784c 5ec0
00000080: 7392 a6bc 5a59 98c0 2fbc 53be 9a04 373b
00000090: 8af3 b5bd 12ef 95c0 0e8d c9c0 d792 a23d
000000a0: d420 ebbf de75 94bf e1f6 f63e 602e 593f
000000b0: 1d68 5c40 64f2 7e3e 9c4c 9c3e 33de 8cbd
000000c0: 1f01 103d 85c8 06bd a915 5cc0 4040 20c0
000000d0: 5f47 9540 f517 8e3e 38b5 38bd 8aa3 3740
000000e0: ce0f 94c0 8fe8 523e 3354 9a3d 6946 a4bf
000000f0: a166 9440 eee6 64bf bcb3 b9bf ac29 b4c0
00000100: 80a8 6cc0 dd07 483e 0c75 7ebf 01ad 21be
00000110: 52f7 9540 731d 73c0 f2dc 01c0 3685 6bc0
00000120: a3b4 27bf 2773 9240 ca30 6fc0 cf0b 3d40
00000130: 141a 88c0 6b60 5640 ae86 873f 35d0 3c3d
00000140: 21db febf 8783 91bc 658a 5cc0 422d bebe
00000150: 8462 ce3f 9e10 35bd 8188 d8be 962d 6b3d
00000160: 9da3 143f 1c68 afbe 7a90 9a40 d717 e03e
00000170: b028 dc3f 13b0 4140 a81a ef3f 3150 43bf
00000180: 520a cb3d f6cc 1bc0 abe2 0940 7d02 173f
00000190: eed8 d63d 5da6 553e 1763 98c0 d5b9 88bf
000001a0: 8799 acbf 372d f6be 4a97 0bbd c01e 12bd
000001b0: 2291 1440 a7db b640 d61d 82c0 5519 e7bd
000001c0: 23e3 24c0 8dc7 c0c0 1f64 9cbd ccf3 cfbb
000001d0: b258 26bd 8cbb d63f fe96 d1bd eef1 9c40
000001e0: 68f8 8d3f 0b7e 2e40 e259 ecbe 2d25 9540
000001f0: df69 9c3f 2ec1 c23e 06c8 91be d3b5 0cbd
-2.485195 -5.232345 -0.08382561 -1.2183592 -0.72701764 -3.088637 0.03851812 0.66380304
-2.4265404 1.3330065 3.7095737 2.4890368 -1.1316125 -3.7083292 -0.03509685 1.9097208
1.5014956 -2.3360763 5.281549 -1.3849915 -1.3713431 -1.8136988 1.3952502 -0.33338365
-0.865945 0.14042744 -3.357198 -0.57499737 -0.037538126 1.4191604 0.79717153 -3.4734173
-0.020333504 -4.760907 -0.20677255 0.0027926327 -0.08884342 -4.6854334 -6.2984686 0.07938164
-1.8369393 -1.159847 0.4823523 0.8483639 3.4438546 0.24897152 0.30527198 -0.06878319
0.03515732 -0.032906074 -3.438822 -2.5039215 4.6649623 0.27752653 -0.0450947 2.8693566
-4.6269293 0.20596527 0.07535591 -1.2833987 4.637528 -0.8941487 -1.4507976 -5.630087
-3.6977844 0.1953425 -0.9939735 -0.15788652 4.6864405 -3.7986724 -2.0291104 -3.6800056
-0.65510005 4.5765567 -3.7373528 2.9538457 -4.2531834 3.349635 1.0587976 0.046097
-1.9910623 -0.017762912 -3.445947 -0.37143904 1.6123815 -0.0442053 -0.42291644 0.05741652
0.58062154 -0.34259117 4.8301363 0.43768188 1.7199917 3.0263717 1.868001 -0.7629424
0.09914078 -2.4343848 2.1544597 0.5898817 0.10490595 0.20864244 -4.762096 -1.0681711
-1.3484353 -0.4808137 -0.034079827 -0.035673857 2.3213582 5.714313 -4.066142 -0.112841286
-2.5763633 -6.024359 -0.07636284 -0.0063462015 -0.04061193 1.6775985 -0.102338776 4.9045324
1.1091433 2.726443 -0.46162325 4.660788 1.2219809 0.3803801 -0.28472918 -0.03435309

actor.2.weight f4 [64, 128]
00000000: 5638 233d 553a 9ebf d870 4dbe add3 65bc
00000010: 3436 273c d7d8 9fbd b8a2 123e 1088 013e
00000020: ba45 1c3d d61d 833e d2b4 ab3e ac77 1dbd
00000030: bb41 993d 8c3a 833e 3423 4dbc 75a7 02bf
00000040: 7384 21be a659 973e 4a0d 283f 5d40 133e
00000050: c47b bc3e edc8 3fbb 6b8a ce3c 6558 183e
00000060: 07c8 2a3e 5b17 f4bd fb0e c8be 7efa 95bd
00000070: 46d4 963e 3d85 3d3e 1064 25bc fc90 f73d
00000080: 9093 103e 10df 95bf 05d6 f4bb e991 d43d
00000090: 2d78 b2be c8ad 0abe c964 8ebf b80e 313e
000000a0: 0b88 4fbd 7fff 2abf 9bf8 b8be e592 d5bd
000000b0: 985a 803e 3b4f 11bf 3fe6 57be 6d21 0cbe
000000c0: 3f28 47bd 5ac0 cbbd 1853 52be 8522 d9bd
000000d0: ec52 18bd d33a 0b3e 9a20 f93d 25f6 c1bd
000000e0: 1d02 70be 18c4 7b3b 0b5e 02be ad5c d73d
000000f0: 1cfd f63e 3d6c 04be a41f cd3d fcff 9abf
00000100: ea26 18be f595 cfbd 3d6f bbbd 563b 00bf
00000110: 78f9 db3e 856b 863e 6ced 09be 6b0a 973e
00000120: 81cc 80be 5318 8abf 4d89 83be d5d5 1dbe
00000130: af61 543e 4bcf e8be 3b8e 81be e3f7 0fbc
00000140: a3f1 57be e374 e13e 9a4d 463b f69b 5abe
00000150: c43e 853c 53bb a6be 92e2 f73d 5bef 85be
00000160: bca1 eb3e b5f6 abbe d9d3 b8be 7dae b1bd
00000170: a574 8cbe 1810 24be e789 c33e 7450 7cbe
00000180: 27c7 05bf 7ffe 96be 066f 7abe 45d6 a8bd
00000190: 97e1 913e 1425 a3be c0dc dd3d 7037 debc
000001a0: f2aa 203e f052 e23b 1655 6bbd 776b c9be
000001b0: 6af4 e43c c46b 16bf bd42 2cbd e203 b7bc
000001c0: e0c0 f437 434c ab3e 1c69 2c3e 7d31 2fbe
000001d0: 61b2 893e 2ee0 1c3e b97c 953d 4d92 38bf
000001e0: 7f4e 263e 6550 30bd 58c4 e53e f46d 21bd
000001f0: 6b46 e73e aea2 99bc 833f 7a3e 48ce 4abd
00000200: 3f9a 2abd 5fd0 efbe 2a27 a0be 7a26 9aba
00000210: bb02 72be 2b20 9bbd 520a ec3d ec68 043c
00000220: 172c 853e 6f96 fdbd 2c30 813e 9e09 13be
00000230: 0677 cbbb c49e 8e3e ec5b 8ebe 28b2 b73e
00000240: bb10 d33d 461b 2abe d088 913d 5bf6 883d
00000250: 709e 533e 200c 263e deae 403d d7ec 5c3d
00000260: 9e0b 753c b758 183e 7c7e 73bd 4040 81bd
00000270: 62e1 58be d3d8 df3d 06f1 0abd 659b e83e
00000280: 4f4d 823d c97f 84be d096 a1bb e56d 2f3d
00000290: 9b1d 1a3e 43eb a8be 9cac 93be 21cd 0c3d
000002a0: 1d1e 8d3d 83a2 37be 7898 10bd 71b0 113e
000002b0: 1976 da3c ace0 5fbe fc90 e1bc e076 eabd
000002c0: 86f7 3dbe 6146 c83d 68d5 c6bc d339 7fbd
000002d0: ebd9 c9be fee0 253e 5946 e3bb da39 a43d
000002e0: 82cf 42bc 0a19 cb3e 2481 173c c719 e73d
000002f0: a574 693d 3a53 b9bc 9a11 3d3e 78de ec3d
00000300: dc69 24bf 3c9d e33d 5298 adbd 3db0 a5bc
00000310: 8f4b b53e b46b f03d 8b17 f1bd aaae f73e
00000320: c8e6 4dbd 90ae 91bf 34e0 aa3e c795 423d
00000330: 6676 6fbc 3919 38bf 2010 5ebe e9be ba3e
00000340: 6805 dfbd 7e5d b4bc 6c21 b53d 1914 5abe
00000350: f6ee 9b3d a778 5fbc ad63 2abe 4235 81bd
00000360: 2cf0 88bd 11bd 513e 9bca 89be 340a 76bc
00000370: efdb 863d 2a91 25be 309e d7bd 0ec7 5a3c
00000380: 66b4 c0bd cf0b 41be 108e 0d3e 5d4e 65be
00000390: 3eb2 72be a5c2 2abd db41 be3e 97ed 92bd
000003a0: 9ea8 d63d c764 39be 31ee 9e3d 7066 cdbc
000003b0: 1206 bf3d 4bc0 57bf 9b37 38bc 100f 88bd
000003c0: b3e2 b33d a89e 463f c185 0a3d b4b6 d63d
000003d0: 6004 6abe 7f1c 8dbc 3e2e a0be 0511 66bf
000003e0: e973 323e da8c 3cbe 19a5 05be 17b1 8b3e
000003f0: 1422 6abd b88f 543d 9913 f4bd 7de0 a4be
0.039848648 -1.2361552 -0.20062578 -0.014027518 0.010205794 -0.07805031 0.14319885 0.1264956
0.038152434 0.256087 0.33536392 -0.038444206 0.0748324 0.25630605 -0.0125206 -0.5103677
-0.15773182 0.29560584 0.6564528 0.14380021 0.36813176 -0.0029264048 0.025212487 0.1487747
0.16677867 -0.11918517 -0.3907393 -0.07323168 0.29458827 0.18507858 -0.010094658 0.120882004
0.1411879 -1.1708698 -0.007471802 0.10379393 -0.34857312 -0.13542855 -1.1124507 0.17290771
-0.05066685 -0.66796106 -0.3612717 -0.104284085 0.25069118 -0.5676152 -0.21083926 -0.13684626
-0.048622366 -0.099487975 -0.2053951 -0.10602287 -0.037188455 0.13596658 0.121644214 -0.094707765
-0.23438306 0.0038416442 -0.12731187 0.105157234 0.48239982 -0.12931915 0.100158006 -1.210937
-0.14858595 -0.10136024 -0.091520764 -0.5009054 0.42963767 0.26253906 -0.13469476 0.29500136
-0.25156024 -1.0788673 -0.2569069 -0.15413602 0.20740388 -0.45470652 -0.25303826 -0.008787128
-0.21088271 0.4403449 0.0030258656 -0.21348557 0.01626528 -0.32564792 0.12103762 -0.26159176
0.4602183 -0.3358666 -0.36099127 -0.08675859 -0.27432743 -0.16021764 0.3819115 -0.24640065
-0.5225701 -0.2949104 -0.24456415 -0.08243994 0.28492424 -0.31864226 0.1083312 -0.027126044
0.1569021 0.0069068596 -0.05745419 -0.39339802 0.027948577 -0.5875819 -0.042055834 -0.022340719
2.9176881e-05 0.3345662 0.16836971 -0.17108722 0.26893905 0.15319893 0.072991796 -0.7209824
0.16240881 -0.04304542 0.4487636 -0.0394115 0.45170912 -0.01875433 0.2443829 -0.04951313
-0.041651007 -0.46838662 -0.3127988 -0.0011760734 -0.23633854 -0.07574495 0.11525406 0.008081656
0.260102 -0.123822086 0.25232065 -0.14359137 -0.006209257 0.27855504 -0.27804506 0.3587811
0.103059255 -0.16611966 0.07106173 0.066876136 0.20665908 0.16215563 0.047041766 0.053936806
0.014956383 0.14877592 -0.059446797 -0.06311083 -0.21179727 0.10930028 -0.033921264 0.45431057
0.06362402 -0.25878742 -0.0049313083 0.042829413 0.15050356 -0.3299199 -0.28842628 0.034375314
0.06890509 -0.17933087 -0.035301656 0.14227463 0.026667641 -0.2186305 -0.027534954 -0.11448455
-0.18551454 0.09779049 -0.024271682 -0.062311005 -0.3942407 0.16199109 -0.0069358763 0.08018847
-0.011890294 0.3966754 0.009247098 0.112842135 0.056996007 -0.022622693 0.18463746 0.1156587
-0.6422403 0.111139745 -0.084763184 -0.020225639 0.3540921 0.11739293 -0.117720686 0.48375446
-0.05026892 -1.1381397 0.33374178 0.04750612 -0.014615631 -0.71913487 -0.21685839 0.36473778
-0.10889703 -0.022017237 0.08844265 -0.21296729 0.076139376 -0.013639606 -0.16639586 -0.06308986
-0.06686434 0.2048228 -0.26912388 -0.015017081 0.06584918 -0.16168657 -0.10528219 0.013353122
-0.09409408 -0.18852161 0.13823724 -0.22393174 -0.23700806 -0.041689534 0.3715962 -0.07174223
0.1048138 -0.1810485 0.07760275 -0.02507326 0.0932733 -0.8427779 -0.011243726 -0.06643498
0.08783474 0.7758584 0.033818964 0.104840666 -0.22853231 -0.017225502 -0.3128528 -0.8986972
0.17427029 -0.18413106 -0.13051261 0.27283546 -0.057161406 0.051894873 -0.119178005 -0.3220252

actor.2.bias f4 [64]
00000000: 7943 acbe 4c92 a0bf 796a 88be 6659 c83e
00000010: 3ddd ed3f ef0b 393f d058 ddbd 1765 853f
00000020: 6083 173f 5bc0 ff3e 730d 833f 09d8 623f
00000030: 9759 7e3f 3413 143f 55b0 713e 3b0e 973f
00000040: a588 b5bf bdad c53f 93a5 243f 1188 b3bc
00000050: 87fd d2be abe9 843f 4369 5c3e 45b4 293f
00000060: ea58 a13f c503 ba3e 21da 89bf adda 3ebf
00000070: a640 913e d38c ec3f ede6 f53e 6930 93bf
00000080: 5862 9b3e ee94 2c3f 5f29 e33e f08d 87be
00000090: 0f97 2e3f fb7a d73e 6340 94bf 8604 3e3f
000000a0: 125e 2dbe 3ecc 2340 624b cc3e 4b1e c23e
000000b0: 9472 fcbe f831 6cbf c179 97bd 3c80 053f
000000c0: 12c6 f1bf 0e52 6abf 7795 56bf 3979 96be
000000d0: 1c6f c43f d30f b43e 6eae c93f fb49 9c3e
000000e0: 56bf c53e ce93 33bf 6359 4dbf 7dfc b5be
000000f0: ec8e ecbd 9865 c83f ebde 633f 8e7f 29bf
-0.33645228 -1.2544646 -0.26643732 0.39130706 1.8583142 0.72283834 -0.10807955 1.0421475
0.5918484 0.49951443 1.0238479 0.88610893 0.99355453 0.578418 0.23602422 1.1801218
-1.4182326 1.5443646 0.64315146 -0.021915467 -0.4120905 1.038381 0.21524529 0.66290694
1.260526 0.36331 -1.0769693 -0.7455242 0.28369635 1.8480476 0.48027745 -1.1499149
0.30348468 0.6741475 0.443675 -0.26475477 0.6819925 0.42086014 -1.1582149 0.7422565
-0.16930416 2.559341 0.39901263 0.37913737 -0.49306166 -0.92263746 -0.073962696 0.52148795
-1.8888571 -0.91531456 -0.83821815 -0.2938936 1.5346408 0.35168323 1.5756357 0.30525193
0.3862254 -0.7014741 -0.8021452 -0.35544196 -0.11550698 1.5656004 0.8901202 -0.6621026

actor.4.weight f4 [32, 64]
00000000: b0c5 423e ea5a 0a3f 5376 5d3c 2172 a6bd
00000010: 718b 1b3d 7ed8 71bb 802d a33c 983f ddbe
00000020: 87e4 bdbd 165e c83d bc29 90bd 5215 95bd
00000030: 16c0 883c 5870 bebe 0be4 eb3e 3e50 45bc
00000040: 8c31 0739 1824 a83a f19b a1bd 355c 0c3d
00000050: b8c8 b43e b08f 02bd 97ac 443e 8b6b 1f3e
00000060: 0f5c f43d 6260 2cbc f5cb da3e 738a ccba
00000070: fd2e 88bb 5e0a 87be f7b4 cc3c 2fa7 9a3d
00000080: 13b6 763d ff37 4d3d 7e07 3f3d edff f13e
00000090: e5c3 b5be 31d4 593d bb46 d13d 2376 f9be
000000a0: 125a b13d 3a14 dfbe cc70 883e 8a1e d3bd
000000b0: 97de 5fbd a2fd 58bc 232c 023d 3d86 91be
000000c0: 53b3 bfbd 4672 9bbe 3138 5fbd 70a1 00be
000000d0: 5b94 553e cdb0 273d 22ef 6bbf cf8f 29bc
000000e0: bf4f ff3e 58e5 85bc a370 a8bc 86c9 aa3c
000000f0: 5712 babd c149 99be de11 acbd 7770 7d3f
00000100: 759e 203d 3eb9 933e 5ac7 7cbc 60b1 833c
00000110: 99b6 f13d 1ee8 eebc 175d 06be 7ab9 a4bc
00000120: b125 db3b 7298 f23d f565 c93b 98d1 1d3d
00000130: 00b5 553d 1709 b4bd db89 d73c b81d 2fbc
00000140: d554 52be 7fb5 d43c b36f 04bd 78ce 413d
00000150: ec3b b2ba 413c 0b3d 5666 d83c d49d ffbb
00000160: 0ee6 dc3c 033d 103d b12d bb3d f734 bd3b
00000170: e3ac e33b cc8a bbbe 10b1 9eba 08c5 25bd
00000180: 29c6 923d 774b a93d a34a 57bc 9238 d23c
00000190: 0255 6abe 779e 03bb 4d31 233c c42b b2bc
000001a0: 572b e4bc 7567 97bd 1496 bdbc c148 14bd
000001b0: ddd9 723d 1612 18bd 33a6 3abc a2f4 013f
000001c0: cac3 cfbe eee4 e9bd f690 053d c1d4 9b3c
000001d0: ac6a f53c e82c a23c 94a6 99be 6452 2abc
000001e0: fe40 52bc b11d 3b3c 9f55 0ebb 472d 903c
000001f0: cf11 1cbd 86f9 2c3c c6ab ad3d f441 9ebc
00000200: aa2f a539 5e00 003d f84b 6ebf 9986 59bb
00000210: 3af7 ddbb 9c64 aa3b 9151 29bb f4b9 b2ba
00000220: 7268 14bb 405f 703b ba78 5439 86ef 703a
00000230: aace 41bb fbc8 86bd b160 bbbb 426f 82bb
00000240: 66cf cc3c d6a6 233d 61b6 28bb f369 9e3b
00000250: c241 403b 6886 833a ebf2 a839 1dd0 103a
00000260: 17c0 0bbb ae5e 38ba 126e 033e 8547 4ebb
00000270: a745 13bb 4a95 edbb 385f 033a 0c77 b3bb
00000280: 4808 fa3b 6026 0ebc a892 e93a 3b85 e63a
00000290: 7ec7 97bd 768c 68b8 a75b a8ba 90df 0e3b
000002a0: e9ea 833b bc82 8cbd 3cba 17bb 03b5 013a
000002b0: f1b4 b63c 6b15 9238 8c33 22bb 772a 463c
000002c0: 60b1 babe d575 78bc 510c e0bb 6dcf 3f3b
000002d0: c9f8 18bb da18 e4bb fe62 f6bb 98d7 3aba
000002e0: 6314 14bb 6e4f 2f3b 2632 f13e 1596 113a
000002f0: d25d f9ba edf3 86bc df1a 11bb 6259 33bb
00000300: 18ad fe3b 7742 22bf 875c 05bd 45bb 4a3c
00000310: 2f68 023d 79cd 6d3c 588f 21bc 8b62 bd3a
00000320: 8386 123c 4b80 e23c fb30 893d 651c 31bc
00000330: fd41 823d a455 acbb 1e4a d1bc a768 f03b
00000340: dd0d fdbc 4fa2 93bc 9067 cabc ecd4 2cbc
00000350: ed93 773d 9eef 313c 79f4 a4bc e72d 1f3c
00000360: 1c74 033c 08e0 28bc a977 92bb bc53 bcbc
00000370: 6bb9 ffbc ffe3 afbc 79d2 b7ba 532d c13c
00000380: ed0e dabb 5a53 62bb 9575 a53d 7f0b e03c
00000390: 78ac 4bbe 6992 123e 0c94 c2bd b0e6 253b
000003a0: 3148 1b3c f87e e6bd 6dd7 debc 0bd0 68bb
000003b0: 82f4 c4bc febf 5a3d 4caa 71bd 5a15 e43b
000003c0: 0157 703c 4f05 36bd 4386 67bc 04fc 99bc
000003d0: 1b5f a1bc 6144 cebb 55a0 96be c37d aa3b
000003e0: 2f52 ccba 2b6d 383b 0bdf 74bc 0924 133b
000003f0: df84 8d3c 8efd f2be 2883 05bd 3f8b 8ebc
0.19020724 0.54044974 0.01351698 -0.08127237 0.03797478 -0.003690272 0.019919157 -0.4321258
-0.09272104 0.097835705 -0.0703921 -0.07279457 0.016693156 -0.37195086 0.4607242 -0.012043057
0.00012893061 0.001282814 -0.078910716 0.034267623 0.35309386 -0.031875312 0.19206463 0.15568368
0.11931621 -0.010521026 0.42733732 -0.0015605226 -0.004155992 -0.26375097 0.024988635 0.07551419
0.060232233 0.05010223 0.046638004 0.47265568 -0.35501018 0.053180877 0.10218569 -0.48722944
0.08659758 -0.4357012 0.26648557 -0.10308559 -0.054655638 -0.0132440645 0.031780373 -0.28422728
-0.09360375 -0.3036062 -0.054496948 -0.12561584 0.20857374 0.040940095 -0.9216176 -0.010349228
0.4986553 -0.016344711 -0.020561522 0.020848047 -0.09085529 -0.29939082 -0.084018454 0.9899973
0.039213616 0.28852266 -0.0154283885 0.01607579 0.11802406 -0.029163416 -0.13121448 -0.020107973
0.006687843 0.11845483 0.0061461874 0.038529962 0.05217457 -0.08790796 0.026310852 -0.010688238
-0.20540173 0.02596545 -0.032333087 0.047316045 -0.001359818 0.03399301 0.026415985 -0.007800797
0.026965167 0.035214435 0.09139574 0.005774136 0.0069481 -0.3662933 -0.0012107212 -0.040471107
0.07166702 0.08266347 -0.013140353 0.02566174 -0.2288399 -0.0020083466 0.009960485 -0.021749385
-0.027852697 -0.0739278 -0.023142852 -0.036202196 0.059289802 -0.037126623 -0.011392164 0.50763905
-0.40579063 -0.11420618 0.03260895 0.019022347 0.029958092 0.019796804 -0.30009902 -0.01039562
-0.012832878 0.011420653 -0.0021718515 0.017599715 -0.03810292 0.010557538 0.08480029 -0.019318558
0.00031506765 0.03125035 -0.9308467 -0.0033191799 -0.0067738565 0.005199982 -0.002583597 -0.0013635741
-0.0022645262 0.0036677867 0.0002026287 0.0009190965 -0.0029572644 -0.06581303 -0.0057183136 -0.003980548
0.025001239 0.03995403 -0.0025743472 0.0048344075 0.002933607 0.0010034563 0.00032224445 0.00055241754
-0.0021324211 -0.00070331513 0.12834957 -0.0031475734 -0.0022471936 -0.0072504627 0.0005011442 -0.005476838
0.0076303817 -0.0086761415 0.0017820196 0.0017587313 -0.07411097 -5.5443925e-05 -0.0012844697 0.0021800734
0.004025806 -0.06860873 -0.0023151776 0.00049479323 0.022303076 6.965812e-05 -0.0024749963 0.012095085
-0.3646345 -0.015164812 -0.0068374057 0.0029267923 -0.0023341647 -0.0069609703 -0.007519125 -0.0007127463
-0.002259516 0.0026750225 0.47108573 0.0005553675 -0.0019025153 -0.016473735 -0.002214126 -0.0027366509
0.007772099 -0.6338267 -0.032558944 0.01237375 0.03183764 0.0145143205 -0.009860836 0.0014448924
0.008943203 0.027649065 0.066987954 -0.010809992 0.063602425 -0.0052592326 -0.025548037 0.0073366943
-0.0308904 -0.01802173 -0.024707586 -0.010548811 0.060443807 0.010860352 -0.020136105 0.009715534
0.008023288 -0.010307319 -0.004469831 -0.022989146 -0.031216344 -0.021471022 -0.0014024518 0.023581183
-0.0066546113 -0.0034534545 0.080790676 0.027349232 -0.1989001 0.14313664 -0.09500894 0.0025314502
0.009477661 -0.11254686 -0.027202332 -0.0035524394 -0.024042372 0.053405754 -0.0590003 0.006960553
0.014669181 -0.044438656 -0.014131132 -0.018796928 -0.01969867 -0.0062947725 -0.294192 0.0052029802
-0.0015588457 0.002814124 -0.014945756 0.0022451899 0.017275272 -0.47459072 -0.032595783 -0.017400382

actor.4.bias f4 [32]
00000000: 6428 63bf 19ac d13c 695a ed3d 24a9 383d
00000010: b91f 6d3f 387c 253e a26c f33d 8d72 15be
00000020: 6272 3abf 6faf 1b3f 7f58 7f3f 0c84 f7bd
00000030: 0fbd 0a3f 70cb c73e c250 6cbf 460b e4be
00000040: 5470 a13f eb14 5bbf eac1 b4bf d106 ab3e
00000050: e6bb 333f a259 9c3e 672f 923f 6c5f 32bf
00000060: 189d 153f 968e 07be df21 31bf 5952 51bf
00000070: c4f3 eebd a263 273f 4df0 26bf 4104 c4bf
-0.88733506 0.025594758 0.1158951 0.04508318 0.9262653 0.16160667 0.118859544 -0.14594479
-0.72830784 0.60814565 0.9974441 -0.12085733 0.5419473 0.39022398 -0.92310727 -0.4453985
1.2612405 -0.85578793 -1.4121678 0.33403638 0.70208585 0.30537134 1.1420716 -0.6967685
0.5844283 -0.13237986 -0.6919231 -0.8176628 -0.11667588 0.653864 -0.6521042 -1.5313798

mean.weight f4 [6, 32]
00000000: c2fa 5dbe c295 1ebb 8118 c3ba fa34 c139
00000010: 68dc 663f a752 0e3c b571 b13f c1f9 e7b9
00000020: 1ced 503d 2d38 653a 9b93 87bd 538b 993f
00000030: e1b0 0dbd 4d0e 973e c935 4ebf 90bf 97ba
00000040: 89e1 a1bb e76f b43e 5c32 54bc a2d3 2dbb
00000050: f366 e73b abe3 e938 f201 463a 48d7 31bf
00000060: 0f79 693e c3a3 c139 8fbe 2840 5722 6c3d
00000070: de11 0c3b 0687 cb39 c3e1 eabd d2fd c93b
00000080: e813 f1be 0c55 13bc a15f 84bb b60e b33a
00000090: 3313 1c3e e898 fc3e b2fd 7fbc eee3 a5bb
000000a0: 9b14 d63d ad41 9bbc 189a a7be d9fb e139
000000b0: 019a aa3d 8f7b 8f3b a94e 8ebe 9cb2 643b
000000c0: dd97 9e3b 3644 5b3f 4658 9cbd 4cbc 123b
000000d0: 4f85 2d3b 929a 55ba b906 0540 904c 0c3e
000000e0: 89a7 143b 4f9a f9ba 4986 4b3b eee5 c63f
000000f0: 95cc 5cba 9bdc 52bb 158a fabd f890 23bc
00000100: e522 0f3e e9f0 12bb 97f1 0a3f 93f7 c63a
00000110: 2db6 cdbd a1a7 e33b 147f 14bc 6269 7abb
00000120: da0d 08bd 139f 0cc0 7c85 143f f189 723b
00000130: 9165 d6bc af92 f839 30b6 843e ac71 3bbc
00000140: 8cf4 0740 c525 8cbe dc4e 99bd bbc8 41bc
00000150: ba91 87bc e7dc 873b 3a63 07bd a41d 80bd
00000160: c19c 593a 1483 153b 9bd1 ff3c c289 03bc
00000170: af1a f53b 3942 faba dbc0 553e f5d5 de3c
00000180: 6f6c b53e 80f5 a8ba 7019 6ebb c7b4 8eb9
00000190: 51e7 893b d702 79bb 347d e53a 5420 e5bb
000001a0: 9fb5 bebd 0cc4 38bc 889e cabe 9775 27bb
000001b0: fee7 7a3b 2dfb 733b 920d bf3f 8317 45bb
000001c0: 3fc1 4f3b a98f 36be cf3f 07be 376c 9e3b
000001d0: 3f60 f13b 489c 2c3b e513 8dbc 8a06 d43b
000001e0: 5c06 7b3b 13ec a2be f61e 02bb 1d7e d2bd
000001f0: 96de e7be 9fc4 863a ebf3 793f 1ece 19c0
00000200: b435 adbe 0d4a 13bc 04eb a0ba ed26 b23b
00000210: 7f4b 0dbe 9037 6e3b bc60 6d3d e6c4 debe
00000220: 08f3 bebf f63b 913a c08c 4bbe d954 663d
00000230: b166 d13d ed36 b7bb 0865 8a3e 187a 8e3c
00000240: 3529 1f3d ae4a 6dbf 8181 80bd 7787 cd3b
00000250: 8b4b 68bf 1668 143b c6de 1fbc cb8c 3fbe
00000260: 91ec 53bb 8ec9 3b3b 78b9 26bd e90e 3ebd
00000270: 4110 5b3b 0b08 bcbf ae89 d03e 4970 49bd
00000280: 04ab e3bd b706 1fbc e7d5 793c 2e88 3f3b
00000290: 3cda 17be 7a07 f8ba c1c5 3c3c e476 95bb
000002a0: 36b1 303c 1be1 12bd 3980 043e f0dc 15bd
000002b0: 32e6 95bf c4f0 45bb 9be2 a9bd f7cc 9cbf
000002c0: 0505 4b3d 709f 7f3d e827 f5be faa8 a0bf
000002d0: 7504 8e3c 91d9 1839 60f7 153d 8dd4 20be
000002e0: 443c 25bb 8392 11bb 3fb9 49bd b04d 71b9
000002f0: e78e d03a 366a e73b db02 96bd 195d 5abd
-0.21677688 -0.002419815 -0.0014884622 0.000368513 0.90180063 0.008686698 1.3862826 -0.00044245835
0.051007375 0.00087440276 -0.066199504 1.1995643 -0.034592513 0.29503098 -0.8055082 -0.0011577476
-0.004940216 0.35241625 -0.01295146 -0.0026523848 0.007061833 0.00011152712 0.00075533905 -0.6946912
0.22800086 0.0003693384 2.6366308 0.057649937 0.0021372954 0.00038819778 -0.11468842 0.006164291
-0.470855 -0.008992445 -0.00403972 0.0013661 0.15241699 0.49335408 -0.0156244505 -0.0050625717
0.10453149 -0.018952215 -0.32734752 0.00043102985 0.08330155 0.004378743 -0.27794388 0.0034896499
0.004839881 0.85650957 -0.07634024 0.0022390066 0.0026477163 -0.0008148338 2.0785353 0.13701081
0.0022682867 -0.001904318 0.0031055382 1.5538919 -0.0008422819 -0.0032174948 -0.12233368 -0.009983294
0.13978155 -0.0022421426 0.54274887 0.0015179984 -0.10044513 0.006947473 -0.009063501 -0.0038209786
-0.033216335 -2.1972091 0.5801618 0.003700849 -0.026171478 0.00047411534 0.25920248 -0.011440676
2.124301 -0.27372566 -0.07485744 -0.011827643 -0.01654898 0.0041462067 -0.033053614 -0.062556535
0.0008301251 0.0022813724 0.031227877 -0.0080284495 0.0074799876 -0.0019093222 0.2087435 0.027201632
0.3543429 -0.0012890548 -0.003633108 -0.0002721904 0.0042084833 -0.0037996077 0.0017508627 -0.006992379
-0.09311985 -0.01127721 -0.39574075 -0.0025552267 0.003828525 0.003722857 1.4926016 -0.0030073829
0.0031700877 -0.1782824 -0.13207935 0.0048346776 0.0073662098 0.0026338268 -0.0172214 0.006470506
0.003830335 -0.31820735 -0.001985488 -0.102779604 -0.45287007 0.0010281986 0.97637814 -2.4032054
-0.33830035 -0.008989823 -0.0012277071 0.005436769 -0.1379833 0.0036349036 0.05795358 -0.43509597
-1.4917917 0.0011080492 -0.1987791 0.05623326 0.10224665 -0.0055912645 0.27030206 0.017392203
0.038857657 -0.9269208 -0.06274701 0.006272252 -0.9074027 0.0022645048 -0.009757703 -0.18706052
-0.003233705 0.0028654072 -0.04070422 -0.04640094 0.0033426436 -1.4689955 0.4073004 -0.04917935
-0.11116603 -0.009706191 0.015248752 0.0029225457 -0.14829344 -0.0018923127 0.011521758 -0.004561292
0.010784438 -0.03585921 0.12939538 -0.036587656 -1.1710875 -0.0030203322 -0.08295175 -1.225005
0.049565334 0.06240791 -0.4788201 -1.2551568 0.01733611 0.000145769 0.03661287 -0.15706082
-0.0025212923 -0.0022212572 -0.04924893 -0.00023012492 0.0015911729 0.007062222 -0.073247634 -0.05331144

mean.bias f4 [6]
00000000: 6522 6b3e 92fc 69be 263a acbd 8647 65bc
00000010: 7123 e93d f09a db3e
0.22962339 -0.22850254 -0.084095284 -0.013994103 0.11383713 0.42891645

logstd.weight f4 [6, 32]
00000000: d532 bebd 95dc acbf 8101 0dbb e252 a53e
00000010: 03ae acbf 3e0e edbd 6e9c c5bf a8c7 013d
00000020: ed0e cdbf 8c23 12bd 5fae b13f fab5 6c3f
00000030: ba4c 9bbc d821 0fbe 6536 4c3c b280 413e
00000040: ff47 6cbd 9640 8a3f 37d2 73bf 3f7c 98be
00000050: fae9 92bf f643 2d3f 13af cf3d a91a 99be
00000060: 4296 b4bd 0a2c 233e a534 3040 1738 213f
00000070: 6206 f23d 1cbc 81be c593 e5bf c62b f43d
00000080: ce8a 803f ef9f 1fc0 a13f 2e3d 06a8 65bf
00000090: 76f4 9a3e 3016 bcbe a95a 18bf 6734 ecba
000000a0: c36d 2740 310b 1d3e 57f6 84bf 396f 50bf
000000b0: c61e 4ebf f593 c83c f383 37bf 8197 923e
000000c0: be41 023e 1a0c 30bf 8be8 a43f 455c 6cbf
000000d0: f732 1240 4a21 5bbf bb6e 15c0 40ab 6b3e
000000e0: 7718 67bd 13aa 8cbe b344 223d c563 29bf
000000f0: c078 653c aa2b a73e 741c 5d3e 9880 91be
00000100: eb5d 713d c0a3 1fc0 273d 6abd 7c84 453f
00000110: df6f c5be 0a46 0ebe 3cf6 7bbe 6d78 393c
00000120: 81f6 4bbf 112f 08c0 2074 d8bf 4d1e c5be
00000130: de95 6bbf 5add 94bd a6fd 4cbf f00c 2a3e
00000140: 90d1 d4bf 5d2c 42be 5f18 2740 d874 a03d
00000150: 3faa 65bd 3562 013f d923 b83e dea4 0f3e
00000160: 42a7 82bc f692 6c3d ea16 03bf dbbb 863d
00000170: 6909 233e 67f4 013f de40 7ebf f912 29bf
00000180: 2953 c73e 6f40 7c3c c5b1 6a3d 7335 87c0
00000190: 97f2 d5bd d14a 013e 5720 8e3d 7f2f 5dbd
000001a0: c52a 4ebe 6b12 f23d ed50 5abe d65b 853e
000001b0: fe05 4f3d 5cd5 123d a895 0fbf f2f6 38be
000001c0: 2660 863e 656c 873e f91b d9bd df29 713d
000001d0: 9d58 89be a5ce b6bc 4204 1fbd febb 0fbd
000001e0: fe53 a73d e9ed cabe ed9f 133e 173d 9b3e
000001f0: cfe2 98be 557f df3d 1dcb bc3f ce02 2c40
00000200: 393e 0840 233b 833d b12c 303d cff5 8ebe
00000210: 711d 3ebd c6a0 813d 9d36 09be 8a91 ab3e
00000220: 57a1 3b40 837b ee3d 3022 9e3e 8045 73be
00000230: b434 8cbe 1c15 0dbd 34fa 6bbf 5815 533e
00000240: 995f 9e3e 8e69 223d a006 ec3f e79e 80bd
00000250: d943 07bf b2d2 5b40 273b 793e 4bdc bfbd
00000260: 0c80 8fbd 8430 fabd f163 1fbe 0572 36bf
00000270: 83a3 42bd 640d 53be c435 9dbe 67e2 f7be
00000280: a487 343e 5247 d1bf fcb1 d6bc 42bd 313f
00000290: 3a2f c1be 236f c3bd ad60 063e 9dac 3e3d
000002a0: 572e 5bbf 4246 233e 6726 453f c84c ab3d
000002b0: 25e2 9dc0 ba2b a7bc a6fe b7be 1173 df3e
000002c0: 3cec 063f e919 e83e 5528 5d40 3b5b 1e40
000002d0: 03d7 b7bf 22af 393e dd06 813e c15a 7abd
000002e0: 7327 59bd cf20 5b3e bc6d bdbe 3665 643e
000002f0: e841 da3d 8b00 6d3e a343 78bf 28d1 f4be
-0.09287039 -1.3504816 -0.002151579 0.32289797 -1.3490604 -0.11574982 -1.5438364 0.031684548
-1.602018 -0.03567843 1.3881339 0.92465174 -0.018957485 -0.13977754 0.012464141 0.1889675
-0.05768585 1.080096 -0.9524264 -0.29782292 -1.1477654 0.67681825 0.10140815 -0.29903153
-0.08817722 0.15934768 2.7532132 0.6297621 0.11817624 -0.2533883 -1.7935721 0.119224116
1.004236 -2.4941366 0.04254115 -0.8970951 0.30264634 -0.36735678 -0.59513336 -0.0018020988
2.6160743 0.153363 -1.0387677 -0.8141971 -0.80515707 0.024484614 -0.71685714 0.28631213
0.12720391 -0.68768466 1.2883466 -0.9232829 2.2843606 -0.8559767 -2.3348835 0.23014545
-0.056419816 -0.27473506 0.039616298 -0.6616786 0.01400584 0.326505 0.21592885 -0.28418422
0.058927458 -2.4943695 -0.057187226 0.7715528 -0.38561913 -0.13893905 -0.2460565 0.011320216
-0.7967301 -2.1278727 -1.6910439 -0.3849968 -0.92025554 -0.07268782 -0.80074537 0.16606498
-1.6626453 -0.18962236 2.6108625 0.07834786 -0.056070562 0.5054048 0.3596485 0.14027736
-0.015948895 0.05775734 -0.5120684 0.06578799 0.15921558 0.50763553 -0.9931773 -0.66044575
0.38930634 0.015396222 0.05729844 -4.2252746 -0.10446661 0.12626196 0.06939762 -0.054000374
-0.20133503 0.11819919 -0.21319933 0.26046628 0.050542824 0.035848007 -0.5608773 -0.18062952
0.2624523 0.26449886 -0.106010385 0.058877822 -0.2682542 -0.022315333 -0.03882242 -0.035091393
0.08170317 -0.39634636 0.14416476 0.30320045 -0.2986054 0.109129585 1.4749485 2.6876712
2.1287978 0.06407764 0.04301137 -0.27921912 -0.046414796 0.06329493 -0.1339974 0.33509475
2.9317224 0.11644652 0.30885458 -0.23756981 -0.2738396 -0.03444396 -0.92178655 0.2061361
0.3093231 0.039651446 1.8439522 -0.06280308 -0.528379 3.4347348 0.24338971 -0.093681894
-0.07006845 -0.12216285 -0.15565468 -0.7126773 -0.04751922 -0.20610577 -0.30705082 -0.4841492
0.17629868 -1.634989 -0.026207916 0.6942941 -0.37731344 -0.09542682 0.13122816 0.046551336
-0.85617584 0.1594477 0.7701172 0.08364254 -4.9338555 -0.020406593 -0.3593647 0.43642476
0.52704215 0.45332268 3.4555867 2.4743183 -1.4362491 0.18133214 0.2520055 -0.061121706
-0.053016137 0.21399234 -0.36997783 0.22304234 0.10657102 0.23144738 -0.96978205 -0.47815824

logstd.bias f4 [6]
00000000: 00d4 c8bf b852 41bf 8f7e 1ebf 8636 bebf
00000010: 3a7e 1dbf 7aa4 a2bf
-1.5689697 -0.75516844 -0.61911863 -1.4860389 -0.6152073 -1.2706444
